Unity/2Dtest/Assets/ML-Config/Agent.onnx (onnx, 550656 bytes, 8 tensors)

network_body._body_endoder.seq_layers.0.weight f4 [256, 14]
0.38075686 -0.26631448 -0.35654634 -0.044449802 -0.47286147 0.0051897317 0.22723953 0.046707924
0.60537463 0.2314375 0.45423034 -0.14752147 0.09712615 -0.06594512 0.64109665 0.23401207
0.07108106 0.15375371 -0.026945785 -0.120189816 0.1232908 0.05651413 0.058983024 -0.069477424
0.013625929 0.2261053 -0.06971888 0.1693162 0.17191663 0.46674022 0.33458823 -0.35345063
-0.24934798 0.18838038 0.37597254 0.2033437 -0.51784927 -0.27367863 0.11548646 0.37912804
0.22172853 -0.27819967 -0.0252517 -0.301447 -0.13634717 -0.6157533 0.17256731 -0.3734494
0.2833017 0.108272955 0.7054918 0.024095656 0.18017565 -0.041194666 -0.013276294 -0.114960045
-0.10303266 0.46072283 -0.19736756 0.007623659 -0.07748181 0.79436904 -0.608065 -0.2860954
-0.37644687 -0.35453594 -0.10422268 0.11978482 0.15601091 -0.079080455 0.76643455 0.07055777
-0.05123522 0.58369654 0.19681332 -0.2076024 -0.10190724 -0.24468488 -0.17199245 0.23787308
-0.27063903 -0.20508671 -0.16590717 -0.2439436 -0.3442939 0.17160295 -0.12735863 -0.08163566
0.1735884 0.08608872 0.23759817 0.24308196 0.45753002 0.2628912 0.2345719 -0.22496526
0.124170616 -0.23007286 0.4126417 0.015679859 0.09874092 -0.32105792 0.3466095 0.027827272
-0.20637456 0.012570409 0.25045377 0.29508346 0.30073735 0.0435455 -0.33502176 0.16060114
0.31819382 0.17226672 -0.19647612 0.08403197 0.00717419 -0.66987747 -0.38808936 -0.16529742
0.38999483 0.000104230414 0.2567715 -0.2964841 0.24986096 0.15386164 -0.04281238 0.07777395
0.1413303 -0.14952797 -0.41027012 0.58102816 -0.035758946 -0.047196202 -0.1544594 -0.02925587
0.11311869 0.090008214 0.034097258 0.34769732 0.24834958 0.7894121 -0.041888893 0.46231604
0.03442551 0.052047074 0.058308993 0.026321465 0.045329228 0.11185715 -0.11415286 -0.18978819
0.004327389 -0.13833256 -0.1605381 -0.1305396 0.2606617 0.0921687 0.09521431 -0.32170165
-0.329456 -0.094651744 0.34304821 0.037491556 0.28194088 -0.12223637 0.20909353 0.13315815
-0.022624062 -0.289867 -0.121131994 -0.24946049 -0.1045948 0.24230039 0.46671522 0.32733607
0.46024874 -0.14155181 -0.54603934 0.54273915 0.31097606 0.0018633271 -0.384048 0.26091024
-0.21703255 -0.16177225 -0.27914143 -0.29405907 -0.14810763 0.12913641 -0.59457964 0.11477744
0.045860764 0.01738679 0.21121483 0.2234367 0.028820282 0.40952945 -0.028484687 0.03217085
-0.42097777 0.36735654 -0.17095429 0.22842705 -0.052993353 0.22552887 -0.040378913 -0.4291789
-0.2541824 0.038056005 0.107131824 -0.30282083 0.08622412 -0.0107168695 -0.3180527 -0.10620654
0.078349106 -0.10426515 0.21552444 -0.26777285 0.1874734 0.145859 -0.19198307 -0.29653463
0.3589885 -0.08073834 -0.02581096 -0.1118478 0.19191843 0.032913394 0.09454952 -0.03531789
-0.09855046 -0.11065 0.40497848 -0.122051746 0.3478066 -0.18231137 -0.40532222 -0.08681316
-0.13787323 0.035782333 0.03144844 0.117483296 0.192678 0.28190815 -0.39018753 0.04462808
0.12177029 -0.23189242 -0.3557259 -0.2057298 -0.045047928 -0.47450885 -0.008904555 0.02286247
00000000: 90f2 c23e 5f5a 88be 3e8d b6be ff10 36bd
00000010: e61a f2be a00e aa3b 7bb1 683e cf50 3f3d
00000020: d5f9 1a3f f4fd 6c3e e190 e83e de0f 17be
00000030: 13ea c63d 3c0e 87bd e91e 243f dca0 6f3e
00000040: f292 913d 9d71 1d3e 68bd dcbc 1426 f6bd
00000050: e37f fc3d 5c7b 673d 2f98 713d 2e4a 8ebd
00000060: 4a3f 5f3c 2688 673e c6c8 8ebd 3a61 2d3e
00000070: ea0a 303e 93f8 ee3e 264f ab3e 7bf7 b4be
00000080: 1455 7fbe c9e6 403e 797f c03e 5539 503e
00000090: c591 04bf 9b1f 8cbe 2a84 ec3d 121d c23e
000000a0: ce0c 633e 3070 8ebe a7dc cebc 4357 9abe
000000b0: 989e 0bbe 02a2 1dbf 7cb5 303e c234 bfbe
000000c0: ec0c 913e 36be dd3d 1c9b 343f 4164 c53c
000000d0: f77f 383e bdbb 28bd d084 59bc 2c70 ebbd
000000e0: ca02 d3bd dde3 eb3e b91a 4abe e3cf f93b
000000f0: c8ae 9ebd c55b 4b3f 26aa 1bbf 197b 92be
00000100: a5bd c0be bc85 b5be b372 d5bd be51 f53d
00000110: 53c1 1f3e eff4 a1bd 0e35 443f 9880 903d
00000120: 06dc 51bd 236d 153f 6e89 493e b995 54be
00000130: beb4 d0bd ac8e 7abe ca1e 30be 0095 733e
00000140: 3391 8abe 4002 52be 92e3 29be 5acc 79be
00000150: 4a47 b0be afb8 2f3e 4d6a 02be 9930 a7bd
00000160: 28c1 313e 484f b03d ef4c 733e 7aea 783e
00000170: 6041 ea3e ad99 863e 9e33 703e 4b5d 66be
00000180: 2a4d fe3d 3898 6bbe c645 d33e 0c73 803c
00000190: ae38 ca3d b461 a4be cd76 b13e 05f6 e33c
000001a0: da53 53be 1ef4 4d3c 7a3b 803e 2e15 973e
000001b0: 3ffa 993e c45c 323d f987 abbe a074 243e
000001c0: 4dea a23e b066 303e 0931 49be f418 ac3d
000001d0: 7815 eb3b 177d 2bbf a6b3 c6be ba43 29be
000001e0: 67ad c73e 4796 da38 8e77 833e c4cc 97be
000001f0: 8ddb 7f3e e88d 1d3e 095c 2fbd f347 9f3d
00000200: e4b8 103e dc1d 19be ed0e d2be 43be 143f
00000210: f977 12bd ce50 41bd 9b2a 1ebe 02aa efbc
00000220: c6aa e73d 3a56 b83d 91a9 0b3d 6205 b23e
00000230: 5a4f 7e3e e916 4a3f b093 2bbd b0b4 ec3e
00000240: c301 0d3d 502f 553d 69d5 6e3d 1da0 d73c
00000250: 24ab 393d 5d15 e53d fac8 e9bd d657 42be
00000260: c5cc 8d3b 0da7 0dbe 1a64 24be 2cac 05be
00000270: 7375 853e f2c2 bc3d b8ff c23d 14b6 a4be
00000280: 75ae a8be c6d8 c1bd 04a4 af3e bf90 193d
00000290: 8e5a 903e 1057 fabd 9d1c 563e 9c5a 083e
000002a0: 1956 b9bc 7369 94be 0d14 f8bd 9272 7fbe
000002b0: cc35 d6bd 981d 783e 4cf5 ee3e 9898 a73e
000002c0: b9a5 eb3e f5f2 10be 3cc9 0bbf f4f0 0a3f
000002d0: 4138 9f3e e23a f43a f1a1 c4be 0796 853e
000002e0: c83d 5ebe a0a7 25be a0eb 8ebe e98e 96be
000002f0: 87a9 17be 563c 043e 5f36 18bf 6f10 eb3d
00000300: 7fd8 3b3d be6e 8e3c b348 583e 97cc 643e
00000310: 8318 ec3c d8ad d13e b858 e9bc 95c5 033d
00000320: 668a d7be 2816 bc3e a40e 2fbe c8e8 693e
00000330: 8f0f 59bd 0af1 663e 5c64 25bd 56bd dbbe
00000340: 3224 82be 9de0 1b3d ee67 db3d 550b 9bbe
00000350: 4596 b03d cf95 2fbc ced7 a2be d082 d9bd
00000360: 7f75 a03d f888 d5bd 70b2 5c3e 8619 89be
00000370: 07f9 3f3e 105c 153e 3697 44be 63d3 97be
00000380: 57cd b73e 255a a5bd 8271 d3bc 7610 e5bd
00000390: 4486 443e 32d0 063d 2ea3 c13d 7ea9 10bd
000003a0: d3d4 c9bd 789c e2bd 5759 cf3e 44f6 f9bd
000003b0: b513 b23e d5af 3abe 6586 cfbe 19cb b1bd
000003c0: a42e 0dbe 7f90 123d 14d0 003d 159b f03d
000003d0: 624d 453e 4456 903e a9c6 c7be efcb 363d
000003e0: b462 f93d 3575 6dbe b521 b6be d5aa 52be
000003f0: 2d84 38bd d3f2 f2be 69e4 11bc 134a bb3c

network_body._body_endoder.seq_layers.0.bias f4 [256]
0.03870286 -0.046961706 0.098187394 0.0799312 0.04329401 0.029634323 -0.066336945 -0.024888977
0.06411179 0.030123612 -0.10203616 -0.07221575 0.0127151385 0.044909917 -0.083866805 0.009974442
-0.09146044 -0.018078636 0.089097336 0.11631139 0.05857198 0.09260812 0.0021103807 0.08078182
0.09813851 -0.0010225984 0.0067804507 0.026841713 0.05008045 0.09680216 -0.0023690076 -0.059815057
-0.15179545 -0.037612796 -0.0030715568 0.10133355 -0.13169977 -0.11844718 0.0377972 0.019698486
-0.090374894 0.032292042 -0.14457044 0.12079711 0.02524404 0.01667218 -0.29770884 -0.015322557
-0.16710773 -0.074960314 -0.0174546 4.7448775e-06 0.06876492 0.062303256 -0.14651084 0.07463794
0.08308024 0.05559872 0.060632974 0.001222523 -0.040610414 -0.055316567 -0.08427485 0.036601577
0.027500222 -0.03796663 -0.1111018 -0.07252962 0.12101225 0.025686884 -0.098556936 -0.023065714
0.0010243808 -0.029050086 -0.04763946 0.0530647 -0.031836756 -0.13497666 -0.06364687 0.12678103
0.082454 -0.06685081 -0.03976485 -0.10673799 0.0965799 -0.012815539 0.00040615126 -0.08136592
0.025992049 0.0042630946 -0.14943366 -0.12951666 0.011080885 -0.035076093 -0.020195937 -0.04810843
-0.06283109 -0.03268744 -0.0074505024 0.010935835 0.089409456 -0.0626263 -0.10753239 0.031041728
0.04926422 0.08132123 0.056305982 0.008035037 0.023364048 -0.035698067 -0.09109141 -0.07898463
-0.11629859 0.082046814 0.10010182 0.0536927 0.14319758 -0.11648321 -0.01261568 0.060315933
-0.09029612 0.05002272 -0.03488529 0.004124296 -0.22778249 -0.010724485 0.031907585 -0.067369044
-0.067123495 0.09168904 0.06212773 0.01694482 0.046384335 -0.21729784 -0.1227611 0.023606673
0.0053597433 0.06587697 -0.020250754 -0.018374762 0.0046920623 0.06772187 0.009776445 -0.19567698
0.028897766 0.12086926 -0.019348383 -0.12835963 0.09906407 0.034239072 -0.027541004 -0.028783115
0.07299908 -0.10682086 -0.09626204 -0.15015289 0.0119529655 -0.07285751 0.019837176 0.025068693
-0.07103284 0.03245528 0.08932993 -0.03723678 -0.09211359 -0.0066462317 -0.092909046 0.06856873
0.09680763 -0.10491294 -0.07390574 0.029679075 0.05602122 -0.059658613 -0.12860899 -0.038625132
-0.107473664 0.06594768 -0.024544902 -0.119852886 -0.009342231 0.019369893 -0.1153878 0.026857778
0.092142366 -0.055637125 -0.08740215 0.028038474 -0.008652295 -0.044247843 0.035583444 0.092145346
-0.06548203 0.07549907 -0.08303982 -0.062061146 -0.05989309 0.047873605 0.13476011 0.05060765
-0.08142039 -0.06178213 -0.09829268 0.06991121 -0.064607844 -0.038077593 0.044245023 0.03371236
0.07836974 0.0914824 -0.044420615 0.010066773 -0.047561806 -0.12828282 0.058120083 0.09045589
-0.0060245628 0.0131809665 -0.15252744 -0.038243245 0.051412184 -0.13090055 0.0956268 0.04841357
-0.02810449 -0.02590373 -0.021142852 -0.030855654 0.08479465 -0.07262366 0.067037545 -0.03221766
-0.07355915 -0.028559372 0.06446377 -0.08820408 0.09486135 0.020123532 0.06558682 -0.07008652
-0.08530627 -0.015202087 0.011751516 0.08507535 -0.16406886 0.11448 0.0021457996 0.0909242
-0.020976493 -0.035172667 -0.15422527 -0.14912513 -0.06613168 -0.09019486 0.0519056 -0.07781235
00000000: e486 1e3d eb5a 40bd 7916 c93d f8b2 a33d
00000010: 0f55 313d aec3 f23c aadb 87bd f8e3 cbbc
00000020: 0b4d 833d cbc5 f63c 56f8 d0bd dae5 93bd
00000030: 2853 503c 76f3 373d 5cc2 abbd d86b 233c
00000040: 9c4f bbbd a619 94bc aa78 b63d ab34 ee3d
00000050: 2ce9 6f3d 53a9 bd3d 504e 0a3b f070 a53d
00000060: d8fc c83d b508 86ba 8b2e de3b 27e3 db3c
00000070: 2821 4d3d 3640 c63d 5a41 1bbb a200 75bd
00000080: 4470 1bbe e00f 1abd 2c4c 49bb f787 cf3d
00000090: 4edc 06be 6f94 f2bd 3dd1 1a3d b85e a13c
000000a0: 7916 b9bd a944 043d 460a 14be 7a64 f73d
000000b0: 97cc ce3c 1894 883c 4b6d 98be 760b 7bbc
000000c0: 4a1e 2bbe cb84 99bd f3fc 8ebc 3036 9f36
000000d0: 9fd4 8c3d b331 7f3d f006 16be c7db 983d
000000e0: f925 aa3d 7cbb 633d 485a 783d 113d a03a
000000f0: 1b57 26bd a093 62bd 4b98 acbd 89eb 153d
00000100: 2548 e13c e682 1bbd 5789 e3bd 698a 94bd
00000110: 45d5 f73d 4d6d d23c 38d8 c9bd 4ff4 bcbc
00000120: 8444 863a 72fa edbc 9821 43bd 5f5a 593d
00000130: 4267 02bd 5237 0abe 4a59 82bd e3d2 013e
00000140: a5dd a83d 14e9 88bd 78e0 22bd 7399 dabd
00000150: afcb c53d 44f8 51bc b3f0 d439 2da3 a6bd
00000160: 47ed d43c 6eb1 8b3b 2305 19be 04a0 04be
00000170: 9a8c 353c f3ab 0fbd f371 a5bc 580d 45bd
00000180: 96ad 80bd 44e3 05bd 5823 f4bb 372c 333c
00000190: 4e1c b73d 3842 80bd f139 dcbd 394b fe3c
000001a0: 47c9 493d bf8b a63d 1aa1 663d 63a5 033c
000001b0: f665 bf3c 2338 12bd 228e babd b2c2 a1bd
000001c0: f52d eebd 2908 a83d 2f02 cd3d e0ec 5b3d
000001d0: 63a2 123e c08e eebd ffb1 4ebc d70d 773d
000001e0: 2ced b8bd a0e4 4c3d e1e3 0ebd 1a25 873b
000001f0: d03f 69be c0b5 2fbc 87b1 023d c8f8 89bd
00000200: 0b78 89bd 77c7 bb3d a679 7e3d ddcf 8a3c
00000210: 80fd 3d3d 5383 5ebe 2c6a fbbd c862 c13c
00000220: c9a0 af3b 81ea 863d e9e4 a5bc ab86 96bc
00000230: dfbf 993b c4b1 8a3d 622d 203c 8c5f 48be
00000240: 02bb ec3c 4d8a f73d 8080 9ebc b570 03be
00000250: 1ae2 ca3d 453e 0c3d ac9d e1bc 91ca ebbc
00000260: 8b80 953d e5c4 dabd 0825 c5bd aec1 19be
00000270: 5fd6 433c 5136 95bd 9381 a23c dc5c cd3c
00000280: aa79 91bd d4ef 043d 9cf2 b63d 9885 18bd
00000290: 0da6 bcbd a2c8 d9bb 1947 bebd c36d 8c3d
000002a0: 1443 c63d 98dc d6bd e55b 97bd 8821 f33c
000002b0: 8276 653d 975c 74bd 13b2 03be 6335 1ebd
000002c0: 271b dcbd 940f 873d 6412 c9bc 6e75 f5bd
000002d0: 2810 19bc 9cad 9e3c 7050 ecbd d804 dc3c
000002e0: 23b5 bc3d c1e3 63bd e6ff b2bd f1b0 e53c
000002f0: 5bc2 0dbc 3a3d 35bd f2bf 113d b3b6 bc3d
00000300: 711b 86bd 429f 9a3d c810 aabd d433 7ebd
00000310: 7552 75bd 1d17 443d 8efe 093e f849 4f3d
00000320: bcbf a6bd 420f 7dbd ac4d c9bd 9c2d 8f3d
00000330: 1e51 84bd 40f7 1bbd 453a 353d f915 0a3d
00000340: 5080 a03d 205b bb3d 64f2 35bd 1bef 243c
00000350: 2bd0 42bd 925c 03be 530f 6e3d f040 b93d
00000360: b269 c5bb fbf4 573c 2730 1cbe f3a4 1cbd
00000370: 9595 523d cb0a 06be fcd7 c33d 4f4d 463d
00000380: 633b e6bc 0f34 d4bc c633 adbc ffc4 fcbc
00000390: d1a8 ad3d b7bb 94bd fb4a 893d aaf6 03bd
000003a0: 2ea6 96bd 58f5 e9bc 9505 843d 57a4 b4bd
000003b0: ab46 c23d 1bda a43c 6252 863d 8589 8fbd
000003c0: 0eb5 aebd 2d12 79bc 6e89 403c fc3b ae3d
000003d0: ab01 28be 7e74 ea3d 8ba0 0c3b 7836 ba3d
000003e0: e5d6 abbc 3711 10bd 3bed 1dbe 42b4 18be
000003f0: 0c70 87bd 15b8 b8bd f79a 543d 155c 9fbd

network_body._body_endoder.seq_layers.2.weight f4 [256, 256]
0.041639104 0.037546497 -0.04299309 -0.04386658 -0.12728538 0.15073898 -0.055286124 -0.037859
0.06422574 -0.06907355 0.11881978 -0.026327971 -0.07306765 -0.132993 0.056907844 0.013194867
-0.1193169 -0.04061203 -0.08138234 -0.18901531 -0.11545968 0.08242913 0.079254985 -0.19355957
0.0030624634 0.007034388 -0.119314194 -0.111165784 0.028312512 -0.18734403 -0.10340716 0.0146001885
0.057050258 0.029293086 0.022223525 -0.13980441 -0.026027834 -0.072748974 -0.042065557 -0.010673437
0.06420203 -0.044173054 0.06717173 -0.14564013 0.018888734 -0.05191984 -0.049539555 0.018567048
-0.14638704 -0.07286373 -0.0662661 -0.055814944 -0.023209134 -0.008011061 -0.007883422 -0.2359456
-0.15476051 -0.06301252 -0.14089765 0.03074791 -0.21903218 -0.03248168 0.044120632 -0.07879898
0.034920607 -0.097817965 -0.19842923 0.042004444 -0.22234496 -0.16244535 0.011266426 -0.16343905
0.06577091 -0.044842206 -0.0073037096 -0.077276915 0.11046811 -0.025166629 -0.06167803 -0.017652666
0.012738148 -0.15793945 -0.10963693 0.07920323 -0.10563968 -0.03358994 -0.099774264 0.027259959
-0.014888063 -0.013485812 -0.16805957 0.13264455 -0.049098678 -0.027320161 0.017456036 -0.10340877
0.04666923 0.007819487 0.029151767 0.10844525 -0.13868748 0.07817052 -0.04043485 -0.06164667
-0.15717137 0.026314953 -0.14537114 0.004135534 -0.032875996 0.09370285 0.2136352 -0.006389576
0.07729002 -0.14817177 -0.15742804 0.016666902 -0.004877768 -0.1518587 -0.028747827 -0.11549868
-0.07806109 0.026589407 -0.062257577 -0.19267124 0.041226026 0.023130905 -0.09077734 0.037227135
-0.08505921 -0.15373388 -0.03351306 -0.14530393 -0.013497645 -0.04335664 0.13224788 0.014583388
-0.037538785 -0.032990437 0.046137683 0.15953992 -0.016467238 -0.070955165 -0.083506726 0.08512584
-0.046321563 -0.0010084548 0.058888823 -0.023418985 0.013261525 -0.0255987 -0.06023156 -0.061553124
0.077949785 0.027833804 0.10319643 0.037419077 -0.08805201 -0.06962351 0.024445252 -0.21933767
0.043626204 -0.050422568 -0.04787882 -0.086861506 0.03433438 -0.12766144 0.0055219634 -0.14135467
-0.041088983 -0.018018411 -0.08061501 0.2128313 0.010078549 0.14906506 -0.048799064 -0.09744518
0.03440787 -0.00033050333 0.003734238 0.13499391 0.19451025 -0.027430538 -0.13593054 -0.17299883
-0.33365506 0.035402246 0.020833164 0.021975482 0.034051504 -0.012601872 -0.09363252 0.04357522
0.055356354 -0.111228995 -0.12345554 -0.11038561 0.04463092 -0.0960563 -0.028546741 0.111407146
0.068014346 -0.048796542 -0.11056373 -0.08922296 -0.10189526 -0.0026129559 -0.16856354 -0.0045755547
-0.007696544 -0.18046866 -0.0024168838 -0.12452731 -0.053519882 0.048610494 0.06528046 -0.3211423
-0.07535787 -0.036697686 -0.043795645 -0.09189131 0.0071010515 0.17388187 -0.29877976 -0.02425098
-0.12548393 -0.030137973 -0.105319984 0.11472657 -0.16646299 -0.16685356 0.046601485 0.014089023
0.00023691432 -0.026607836 -0.011981843 0.007781183 -0.11077578 0.07229088 0.08452607 -0.019859146
0.07164627 -0.15728907 0.13163485 0.01340569 0.08579853 -0.07996426 -0.10766041 -0.024222832
0.029295567 -0.10312331 0.03288913 0.023690661 -0.061199754 -0.09194437 -0.14099014 0.11839395
00000000: c48d 2a3d 5bca 193d 8619 30bd 71ad 33bd
00000010: 1957 02be 525b 1a3e b473 62bd 0a12 1bbd
00000020: c988 833d 6f76 8dbd c957 f33d c2ad d7bc
00000030: 7ea4 95bd 512f 08be 3318 693d 492f 583c
00000040: 6b5c f4bd cd58 26bd c9ab a6bd 3b8d 41be
00000050: 2076 ecbd 9bd0 a83d 7050 a23d 7b34 46be
00000060: 9cb3 483b b980 e63b 005b f4bd e3aa e3bd
00000070: a4ef e73c 1dd7 3fbe 22c7 d3bd a135 6f3c
00000080: 88ad 693d 0ef8 ef3c 1c0e b63c e328 0fbe
00000090: 5338 d5bc 6afd 94bd ef4c 2cbd a4df 2ebc
000000a0: 5b7c 833d ceee 34bd 5591 893d b022 15be
000000b0: 8cbc 9a3c e6a9 54bd fde9 4abd ec19 983c
000000c0: 7ce6 15be 9439 95bd 85b6 87bd 369e 64bd
000000d0: 1521 bebc d340 03bc 7829 01bc b99b 71be
000000e0: 8a79 1ebe b50c 81bd 7947 10be 0ae3 fb3c
000000f0: f949 60be 830b 05bd d6b7 343d 5c61 a1bd
00000100: e908 0f3d c954 c8bd 0831 4bbe da0c 2c3d
00000110: 66ae 63be 1358 26be d196 383c 915c 27be
00000120: e6b2 863d 76ac 37bd f553 efbb 5c43 9ebd
00000130: 1b3d e23d 3f2a cebc 1aa2 7cbd 539c 90bc
00000140: aab3 503c e1ba 21be 5489 e0bd 4e35 a23d
00000150: 9e59 d8bd 9b95 09bd 7356 ccbd 4750 df3c
00000160: 10ed 73bc 98f3 5cbc cf17 2cbe f9d3 073e
00000170: b21b 49bd 88ce dfbc f6ff 8e3c fac7 d3bd
00000180: 3c28 3f3d 4e1d 003c b0cf ee3c 8b18 de3d
00000190: 1704 0ebe de17 a03d 039f 25bd 3881 7cbd
000001a0: 88f1 20be 7592 d73c 2cdc 14be 6083 873b
000001b0: fba8 06bd 48e7 bf3d 30c3 5a3e a65f d1bb
000001c0: 3b4a 9e3d 57ba 17be d134 21be 0789 883c
000001d0: afd5 9fbb d980 1bbe 9080 ebbc 928a ecbd
000001e0: 7ede 9fbd 07d2 d93c cd01 7fbd 9c4b 45be
000001f0: 9fdc 283d 067d bd3c 78e9 b9bd 7b7b 183d
00000200: 8633 aebd 6a6c 1dbe fe44 09bd 8eca 14be
00000210: 3a25 5dbc bb96 31bd fd6b 073e 2aef 6e3c
00000220: 45c2 19bd fb20 07bd defa 3c3d 6f5e 233e
00000230: 4de6 86bc f150 91bd 9305 abbd 7556 ae3d
00000240: aebb 3dbd 212e 84ba 6835 713d 2cd9 bfbc
00000250: de46 593c 5db4 d1bc 5eb5 76bd 211f 7cbd
00000260: 23a4 9f3d b803 e43c a658 d33d bf44 193d
00000270: 9d54 b4bd c596 8ebd 6941 c83c 0e9a 60be
00000280: 64b1 323d e587 4ebd 951c 44bd 72e4 b1bd
00000290: 35a2 0c3d aeb9 02be 96f1 b43b 47bf 10be
000002a0: ec4c 28bd 599b 93bc 7b19 a5bd 73f0 593e
000002b0: 8020 253c 83a4 183e 87e1 47bd 5791 c7bd
000002c0: 44ef 0c3d 6847 adb9 1eba 743b d83b 0a3e
000002d0: b22d 473e 02b6 e0bc 6031 0bbe 9b26 31be
000002e0: d6d4 aabe f201 113d 50aa aa3c ed05 b43c
000002f0: 9779 0b3d 1578 4ebc 68c2 bfbd ee7b 323d
00000300: 58bd 623d 07cc e3bd 42d6 fcbd da11 e2bd
00000310: e9ce 363d 2ab9 c4bd dbda e9bc 6e29 e43d
00000320: 1b4b 8b3d e2de 47bd 3d6f e2bd 87ba b6bd
00000330: 76ae d0bd 203e 2bbb ec9b 2cbe 89ee 95bb
00000340: 4a33 fcbb c7cc 38be 9564 1ebb 2d08 ffbd
00000350: aa37 5bbd cc1b 473d c3b1 853d c36c a4be
00000360: 3a55 9abd 5050 16bd 1063 33bd 8331 bcbd
00000370: f0af e83b 170e 323e a9f9 98be fea9 c6bc
00000380: dc7e 00be e9e3 f6bc 01b2 d7bd c4f5 ea3d
00000390: 4675 2abe a9db 2abe 33e1 3e3d a5d5 663c
000003a0: 346c 7839 adf8 d9bc 7e4f 44bc 4bf9 fe3b
000003b0: 6ade e2bd 3e0d 943d 011c ad3d a6af a2bc
000003c0: 48bb 923d 6310 21be 49cb 063e 8aa3 5b3c
000003d0: 24b7 af3d 4dc4 a3bd 107d dcbd f66e c6bc
000003e0: 42fd ef3c 5032 d3bd c1b6 063d eb12 c23c
000003f0: 98ac 7abd 544d bcbd b85f 10be 8778 f23d

network_body._body_endoder.seq_layers.2.bias f4 [256]
-0.16453467 -0.15733728 0.055401526 0.11315377 0.13023968 0.022531759 -0.015099526 -0.16549152
-0.011963841 -0.105100885 -0.062145535 -0.09324559 -0.1473555 -0.036168583 -0.13483992 -0.04169784
-0.15032272 -0.034601036 -0.13489275 -0.22226913 -0.16903295 0.10695179 -0.13621311 -0.14445205
-0.2215275 -0.16076517 -0.15928411 -0.10257445 -0.08437379 -0.08290539 -0.09637032 0.06230862
-0.017486872 -0.1787812 -0.04242741 0.11925422 -0.028301403 -0.22313838 -0.090415195 0.066973016
0.13387002 0.1656922 0.024734147 0.034812234 0.13170709 -0.070745766 -0.09573417 -0.024998916
-0.017217673 -0.06461861 -0.030597212 -0.16330564 -0.12930833 0.121328495 -0.022463461 0.103851184
0.02705831 -0.1637131 -0.22446685 -0.028901998 0.06766136 -0.13411684 -0.14130509 -0.07292007
0.065248154 -0.04686547 -0.15532617 0.08902689 -0.07677192 0.005404798 0.01781969 -0.01901344
-0.16900894 -0.048475113 -0.09646313 0.00366734 -0.06036062 -0.14591719 -0.11821948 0.027983269
0.06500289 -0.02739865 -0.07155563 -0.08986223 0.050142195 -0.088397086 -0.025535548 -0.08080293
0.006567254 -0.0025290675 0.066135205 -0.024890002 -0.049808133 -0.071808 -0.023211202 0.029912239
0.024132645 -0.05243774 -0.070355624 -0.20165238 -0.0148548335 -0.025940526 -0.11379397 0.036932357
-0.21508609 -0.115748554 -0.13370575 -0.10469236 0.0815826 -0.020355748 -0.060821727 -0.048892148
-0.078512855 -7.023412e-05 -0.115856454 0.13445818 -0.12095989 -0.022056524 -0.044943288 -0.07566188
-0.04827561 -0.05119075 -0.019686628 0.043374203 0.0052565113 -0.04566981 -0.04670555 0.023352785
-0.13985401 -0.016270395 -0.062843196 -0.005876739 -0.004485004 -0.08631592 0.008658793 -0.014420939
0.001032578 0.04854823 -0.10460071 0.097121716 -0.0042902087 0.118167005 0.13050921 0.15460677
-0.06610655 -0.11403514 0.037028164 -0.07986169 -0.005124256 -0.1199733 -0.029965572 -0.12221188
0.043839294 0.0070123184 -0.13199529 -0.056478288 -0.056735344 0.08726025 -0.013771363 -0.13885699
-0.16208649 0.0078701535 0.01791192 -0.09939446 0.047783278 0.10834332 -0.10236734 -0.027572256
-0.02487732 -0.18776742 0.062033698 -0.18290271 -0.07548386 -0.1548372 -0.0195606 0.011827382
-0.04118341 -0.00086142897 -0.20162375 -0.21855374 -0.03890216 -0.09424166 0.021656001 0.046452433
0.10620254 -0.03700697 -0.083584666 0.05123822 -0.018205658 -0.043738768 -0.1388367 -0.06378667
-0.052663174 -0.0073960326 -0.032730963 0.08234065 0.08404941 0.05452335 -0.035088573 -0.1734639
-0.0058778008 0.0875258 0.009244598 0.042724043 -0.030620094 -0.25860813 0.06605931 -0.11651361
-0.18230604 0.018432625 -0.0083452705 -0.026549716 0.03383653 0.05536689 0.023381375 0.027590815
0.047285475 -0.15460412 -0.084206015 0.070184276 0.038401052 -0.04872958 -0.013502789 -0.11929442
-0.0544717 -0.1431086 -0.0103038065 -0.186324 -0.23094033 0.011626844 -0.13781022 0.0833565
-0.028731273 -0.008499879 -0.028861672 -0.045854107 -0.18427688 -0.04864277 -0.048262246 -0.10929613
0.16317098 0.020984503 -0.037997514 -0.0003498937 -0.1454032 -0.16957444 -0.12364467 -0.046988644
0.050715245 -0.084321894 -0.18483944 -0.1798672 -0.026165318 -0.17791481 -0.0316861 -0.0040958873
00000000: c77b 28be 061d 21be b6ec 623d 2abd e73d
00000010: 8d5d 053e 8694 b83c 0164 77bc 9c76 29be
00000020: fc03 44bc 223f d7bd 518c 7ebd 8bf7 bebd
00000030: 5ce4 16be 8225 14bd 7a13 0abe 5bcb 2abd
00000040: 33ee 19be d1b9 0dbd 5321 0abe 859a 63be
00000050: f916 2dbe 8a09 db3d 737b 0bbe 3deb 13be
00000060: 1bd8 62be a09f 24be 601b 23be 8e12 d2bd
00000070: 2acc acbd 4dca a9bd cd5d c5bd 5337 7f3d
00000080: a140 8fbc 6b12 37be 5dc8 2dbd 8e3b f43d
00000090: 58d8 e7bc 637e 64be 9a2b b9bd 2629 893d
000000a0: 3915 093e 37ab 293e 449f ca3c 4697 0e3d
000000b0: 39de 063e 28e3 90bd 4710 c4bd 87ca ccbc
000000c0: 140c 8dbc c356 84bd 01a7 fabc 9839 27be
000000d0: 6769 04be 137b f83d 4b05 b8bc eeaf d43d
000000e0: 64a9 dd3c 68a4 27be a3da 65be e2c3 ecbc
000000f0: 0a92 8a3d ed55 09be 48b2 10be 1e57 95bd
00000100: d3a0 853d 02f6 3fbd d30d 1fbe bb53 b63d
00000110: 993a 9dbd bb1a b13b 99fa 913c 13c2 9bbc
00000120: ae10 2dbe d78d 46bd 768e c5bd c157 703b
00000130: b33c 77bd 516b 15be 0e1d f2bd 2b3d e53c
00000140: 3c20 853d 2273 e0bc c28b 92bd b009 b8bd
00000150: e761 4d3d 8809 b5bd ed2f d1bc 027c a5bd
00000160: 1f32 d73b b6be 25bb e571 873d 1ee6 cbbc
00000170: 9d03 4cbd 1310 93bd 6b25 bebc 830a f53c
00000180: d3b1 c53c f5c8 56bd 9c16 90bd f67d 4ebe
00000190: b061 73bc 3a81 d4bc d00c e9bd 6246 173d
000001a0: 873f 5cbe 940d edbd 29ea 08be f368 d6bd
000001b0: c714 a73d 19c1 a6bc 3420 79bd 2243 48bd
000001c0: 59cb a0bd a84a 93b8 2646 edbd 68af 093e
000001d0: d2b9 f7bd e2af b4bc 7416 38bd 9ef4 9abd
000001e0: a5bc 45bd 64ad 51bd da45 a1bc 26a9 313d
000001f0: d03e ac3b 4410 3bbd 524e 3fbd 574e bf3c
00000200: e435 0fbe 7e49 85bc efb3 80bd a991 c0bb
00000210: f1f6 92bb 67c6 b0bd 9cdd 0d3c cd45 6cbc
00000220: 9157 873a 82da 463d e638 d6bd c0e7 c63d
00000230: e194 8cbb 8b01 f23d 35a4 053e 3d51 1e3e
00000240: df62 87bd 418b e9bd d8aa 173d 878e a3bd
00000250: 60e9 a7bb 90b4 f5bd 5c7a f5bc 394a fabd
00000260: d590 333d 97c7 e53b c629 07be c755 67bd
00000270: 5263 68bd 80b5 b23d 48a1 61bc 8730 0ebe
00000280: 00fa 25be d1f1 003c 05bc 923c 538f cbbd
00000290: 66b8 433d 1ae3 dd3d f8a5 d1bd 36df e1bc
000002a0: 85cb cbbc 1a46 40be 0c17 7e3d d94a 3bbe
000002b0: 4897 9abd a58d 1ebe 8d3d a0bc a3c7 413c
000002c0: efaf 28bd 85d1 61ba 7576 4ebe 8dcc 5fbe
000002d0: df57 1fbd c501 c1bd ed67 b13c e844 3e3d
000002e0: b880 d93d 9f94 17bd 702e abbd 2bdf 513d
000002f0: 0824 95bc 6c27 33bd 352b 0ebe 96a2 82bd
00000300: 57b5 57bd 6b5a f2bb e710 06bd 37a2 a83d
00000310: 1922 ac3d e053 5f3d 09b9 0fbd 85a0 31be
00000320: 919a c0bb ba40 b33d a876 173c 68ff 2e3d
00000330: fed6 fabc 4968 84be 1b4a 873d b09e eebd
00000340: 6fae 3abe 0400 973c 9aba 08bc ca7e d9bc
00000350: 2c98 0a3d 64c8 623d 4c8a bf3c 2206 e23c
00000360: 6aae 413d 8b50 1ebe 3474 acbd c6bc 8f3d
00000370: 6c4a 1d3d ab98 47bd cd3a 5dbc a250 f4bd
00000380: b81d 5fbd 108b 12be 4cd1 28bc b8cb 3ebe
00000390: 9f7b 6cbe 857e 3e3c 1f1e 0dbe d0b6 aa3d
000003a0: d95d ebbc 1443 0bbc 506f ecbc 84d1 3bbd
000003b0: 14b3 3cbe a43d 47bd a2ae 45bd a6d6 dfbd
000003c0: 4b16 273e b1e7 ab3c 48a3 1bbd f071 b7b9
000003d0: 94e4 14be eca4 2dbe 6b39 fdbd 2a77 40bd
000003e0: caba 4f3d f5b0 acbd 8d46 3dbe 1b2f 38be
000003f0: a658 d6bc 4d2f 36be 49c9 01bd cb36 86bb

network_body._body_endoder.seq_layers.4.weight f4 [256, 256]
0.03633518 -0.014666949 -0.069699526 -0.16351248 -0.19947538 -0.04894379 0.11527556 0.013467485
-0.19447085 -0.1328043 -0.16934185 0.09760296 0.048790894 -0.07574502 -0.050783686 0.144086
0.02272912 -0.15278937 0.115834825 0.15918241 0.14691286 -0.068513945 -0.025610358 0.04940045
0.11706273 -0.06383129 0.013067759 -0.1226291 0.0074997516 0.114502326 0.0008827109 -0.13938941
-0.054603405 0.055808168 -0.0041999696 -0.019622637 -0.062708884 0.07149531 -0.062267665 -0.077729404
-0.13379249 -0.029400932 -0.0020709736 0.022707552 -0.21631013 -0.07701265 0.042346846 -0.1494968
-0.003294781 0.009819674 -0.050393563 0.034262873 -0.029765919 -0.23331983 0.0077054505 -0.13783224
0.124292076 0.16836123 0.09526911 -0.13382031 -0.08498406 0.13552812 -0.0011372062 -0.03348393
0.011971084 -0.13503233 0.02757064 -0.03650979 0.005533106 -0.05362726 -0.12498558 0.07490592
0.048390582 0.025927523 0.12290146 0.030879486 -0.0086345095 0.10376437 -0.058798473 -0.018968983
-0.0026802644 0.08404842 -0.02369623 0.020156289 -0.13410252 0.030742789 0.052911002 -0.063756526
-0.0645612 -0.025331795 -0.053275786 -0.063046835 -0.0043353713 0.00075832667 0.022503357 0.046196334
0.029402146 -0.01647859 0.07485221 -0.046860166 -0.15362799 0.045298226 -0.04521963 -0.050196163
0.05600156 -0.050030246 -0.08815842 0.014567566 -0.22253194 -0.078342244 0.032177985 0.00072005356
-0.08306679 -0.0066987486 0.09054487 -0.083267555 -0.015273641 0.05651337 0.09620376 -0.05289798
-0.163299 -0.050803542 -0.1864009 0.02658336 -0.08755565 -0.18006498 0.034887843 -0.00022598711
0.03690609 -0.19749345 0.10210093 0.12563308 -0.09296663 -0.06146215 -0.052136317 -0.012208046
-0.05594321 -0.04612079 0.030091893 -0.024302397 0.03076029 -0.10314298 -0.20987171 -0.23624597
-0.022669544 0.1719639 0.0013696878 0.019042118 -0.15857854 0.07335214 -0.011732605 0.02646473
-0.1708269 -0.2222144 0.008541902 0.066045724 -0.0942867 -0.1643654 -0.07128311 0.036279168
-0.0030248144 -0.04815083 -0.071324706 0.05567082 -0.11396466 -0.08124398 0.0025914279 -0.0027608385
-0.017536366 0.16950451 -0.051483795 0.13426335 0.048336778 0.14379483 -0.037184514 0.08600337
0.06150595 -0.04810271 0.12764125 0.04871321 -0.121327564 -0.049927223 -0.052186724 -0.01383216
-0.002290963 -0.11615807 -0.036474638 0.06725939 -0.0890036 0.15806764 0.059162892 -0.007740843
0.030958481 -0.06719524 0.083685175 -0.013769186 -0.045964587 -0.07107095 0.04301157 0.021896653
-0.018816119 -0.14724606 -0.06032508 0.03278171 0.09987114 -0.01701604 -0.065451555 0.021804968
0.1994811 -0.15095551 -0.0548574 -0.06454762 0.045325134 -0.013248783 -0.12408558 -0.101847015
0.19284394 0.1807284 -0.017151846 -0.02692142 -0.04630761 0.14383575 0.1669166 0.023699317
0.01742565 0.06604973 -0.1254967 -0.020005785 0.042237412 -0.0936046 0.059995245 -0.15866724
0.045252007 0.00073962624 -0.06844488 0.037532054 -0.056851715 0.19850384 0.017667886 -0.029362032
-0.15552162 0.017233245 -0.04626957 0.0113761155 0.015220967 -0.017658059 0.0006937677 0.14496872
-0.0125029115 0.05507068 -0.012886691 0.098730884 -0.19946165 0.11011771 -0.12289301 0.06067387
00000000: 33d4 143d a54d 70bc a0be 8ebd d16f 27be
00000010: 4643 4cbe 4979 48bd 9815 ec3d baa6 5c3c
00000020: 5e23 47be dafd 07be f367 2dbe 10e4 c73d
00000030: f6d8 473d 3420 9bbd 8e02 50bd 488b 133e
00000040: 6b32 ba3c d174 1cbe cf3a ed3d b700 233e
00000050: 5370 163e 0a51 8cbd d0cc d1bc 2058 4a3d
00000060: 96be ef3d fbb9 82bd 271a 563c f724 fbbd
00000070: 7ac0 f53b 3280 ea3d ba65 673a 19bc 0ebe
00000080: d2a7 5fbd 1b97 643d e69f 89bb a7bf a0bc
00000090: 846d 80bd 226c 923d 610c 7fbd 9830 9fbd
000000a0: e600 09be 39da f0bc 2cb9 07bb 3005 ba3c
000000b0: 6780 5dbe cfb8 9dbd e373 2d3d b015 19be
000000c0: 41ed 57bb b3e2 203c 7b69 4ebd 3a57 0c3d
000000d0: a8d7 f3bc 65eb 6ebe 017e fc3b e523 0dbe
000000e0: d88c fe3d e366 2c3e 731c c33d 3108 09be
000000f0: 1f0c aebd e2c7 0a3e 4f0e 95ba 7226 09bd
00000100: 5e22 443c ea45 0abe d3db e13c 4a8b 15bd
00000110: 0f4f b53b 42a8 5bbd 71f8 ffbd 4668 993d
00000120: 3435 463d f565 d43c c3b3 fb3d faf6 fc3c
00000130: c277 0dbc 6a82 d43d abd6 70bd d764 9bbc
00000140: 60a7 2fbb 9421 ac3d 991e c2bc cd1e a53c
00000150: 2c52 09be 4dd8 fb3c 35b9 583d c892 82bd
00000160: aa38 84bd a084 cfbc b637 5abd b31e 81bd
00000170: bb0f 8ebb 71ca 463a f658 b83c 5e38 3d3d
00000180: c5dc f03c 1cfe 86bc 1e4c 993d 72f0 3fbd
00000190: a850 1dbe a28a 393d 3838 39bd 7e9a 4dbd
000001a0: e461 653d 84ec 4cbd 678c b4bd cdac 6e3c
000001b0: 6adf 63be e671 a0bd 10cd 033d fac1 3c3a
000001c0: ec1e aabd 2d81 dbbb 976f b93d 2e88 aabd
000001d0: 4b3e 7abc 907a 673d 7a06 c53d 8dab 58bd
000001e0: da37 27be 6017 50bd e1df 3ebe 59c5 d93c
000001f0: 6050 b3bd f462 38be 8ee6 0e3d f4f6 6cb9
00000200: d72a 173d b93b 4abe 4b1a d13d f5a5 003e
00000210: 4a65 bebd bcbf 7bbd e48c 55bd 4204 48bc
00000220: b524 65bd 27e9 3cbd 4683 f63c d215 c7bc
00000230: 01fd fb3c a03c d3bd 9ce8 56be 77ea 71be
00000240: 7bb5 b9bc 4e17 303e 1987 b33a 37fe 9b3c
00000250: 6a62 22be a639 963d 1d3a 40bc 90cc d83c
00000260: 3fed 2ebe 2c8c 63be 55f3 0b3c fb42 873d
00000270: 6319 c1bd 674f 28be e1fc 91bd 7799 143d
00000280: f73b 46bb ce39 45bd b012 92bd 1607 643d
00000290: 4e66 e9bd 3e63 a6bd f2d4 293b 2fef 34bb
000002a0: 6da8 8fbc 9792 2d3e ace0 52bd 557c 093e
000002b0: c9fc 453d f43e 133e ca4e 18bd 8922 b03d
000002c0: aaed 7b3d 5907 45bd 63b4 023e 8187 473d
000002d0: 967a f8bd 7d80 4cbd bfc1 55bd 49a0 62bc
000002e0: fb23 16bb 48e4 edbd 6e66 15bd 4bbf 893d
000002f0: 8547 b6bd 7cdc 213e ca54 723d e6a6 fdbb
00000300: a49c fd3c a89d 89bd 2263 ab3d 2798 61bc
00000310: 5d45 3cbd a58d 91bd e62c 303d 9c60 b33c
00000320: 4324 9abc acc7 16be 6e17 77bd 1d46 063d
00000330: 3e89 cc3d 3965 8bbc 770b 86bd 55a0 b23c
00000340: c644 4c3e 1594 1abe 27b2 60bd 8b31 84bd
00000350: d9a6 393d 6c11 59bc 9520 febd 2b95 d0bd
00000360: e278 453e de10 393e 0782 8cbc 4f8a dcbc
00000370: 0cad 3dbd ae49 133e 2fec 2a3e 1225 c23c
00000380: 3dc0 8e3c 1545 873d 3582 00be 2ce3 a3bc
00000390: 2301 2d3d c5b3 bfbd 93bd 753d aa79 22be
000003a0: 2b5a 393d 7ae3 413a d42c 8cbd 36bb 193d
000003b0: 58dd 68bd 9744 4b3e 3ebc 903c a588 f0bc
000003c0: 0f41 1fbe bc2c 8d3c 2985 3dbd e362 3a3c
000003d0: 5d61 793c a2a7 90bc f6dd 353a ae72 143e
000003e0: 03d9 4cbc cb91 613d b322 53bc 6b33 ca3d
000003f0: ad3f 4cbe 6585 e13d 55af fbbd 2a85 783d

network_body._body_endoder.seq_layers.4.bias f4 [256]
-0.16922761 -0.024594823 -0.024247607 -0.083316825 -0.10523211 -0.072689384 -0.24368888 0.023251021
-0.10149191 -0.07710269 -0.12829313 -0.03281424 -0.16649961 -0.07647905 -0.1824762 -0.028827703
-0.22047351 -0.07475547 -0.069151714 -0.15635724 -0.25516033 0.021207703 -0.04682074 -0.10357787
-0.122745655 -0.20781201 -0.12180539 -0.15351385 -0.14227681 -0.23196208 -0.1261164 0.0015175252
-0.1355095 -0.07883993 -0.14757748 -0.111681215 -0.06370417 -0.032698937 -0.1538999 -0.08686774
-0.012163783 0.007431809 -0.09438347 0.01359612 -0.05233997 -0.08741205 -0.09750088 -0.08852074
-0.1698115 -0.14009912 -0.11814418 -0.11016789 -0.19005448 -0.059309106 -0.070468344 -0.08442757
-0.039517585 -0.09666504 -0.22447409 -0.068657294 -0.015797505 0.004276394 -0.13129088 -0.016617801
-0.18737964 -0.20501779 -0.027836598 -0.09676493 -0.000121750614 -0.13504359 -0.117366314 0.041773047
-0.03839944 -0.03449299 -0.14251252 -0.12938312 -0.100693956 -0.12780212 -0.17500374 -0.09822737
-0.02860866 -0.12161306 -0.026772575 -0.09235752 -0.19168858 -0.04168354 -0.1523833 0.015955145
-0.03180757 -0.08046674 -0.09052232 -0.038579244 0.0053840503 -0.1409604 -0.12365822 -0.08940478
-0.115218 -0.10415933 -0.16386533 -0.100321054 -0.07202762 -0.06679496 -0.050632905 -0.07921827
-0.16755003 -0.03689815 -0.04619478 -0.088649206 -0.0595645 -0.10705408 -0.006399192 -0.07456295
0.044900786 -0.01778387 -0.073907554 -0.07231591 -0.04928063 -0.0638579 -0.058903717 -0.16397609
-0.06442151 -0.123092525 -0.10761911 -0.1251429 -0.12628439 -0.15899801 -0.19348098 -0.10343232
-0.044005264 -0.078776374 -0.11333198 -0.05588149 -0.10047153 -0.17663433 -0.058144853 -0.13055745
-0.103423126 -0.17321783 -0.06134074 -0.005928864 -0.05444663 -0.16289969 -0.18344732 -0.1408803
-0.038113426 -0.18149003 -0.13312429 -0.1529109 -0.09149982 -0.14662862 -0.10391556 -0.04128505
-0.028904269 -0.039373584 -0.048632633 -0.028595932 -0.052654114 -0.12365175 0.0016128549 -0.1318626
-0.059094597 -0.012202238 -0.18478169 -0.0740259 -0.019666638 -0.13448745 -0.2484713 -0.06858616
-0.196593 0.034590404 -0.02037144 -0.06953916 -0.07881881 -0.074030496 -0.08674953 -0.05854424
-0.13602725 -0.05013084 -0.048701502 -0.20193301 -0.12801553 -0.14778936 -0.12381157 -0.186548
0.03584172 -0.20799758 -0.11959277 -0.083672866 -0.20214137 -0.004090673 -0.09142046 -0.11606514
-0.06301794 -0.13951987 -0.18871307 -0.09205899 -0.14273442 -0.07513491 -0.14536774 -0.0385219
-0.19815755 -0.103080355 -0.043973126 -0.06243509 -0.15559925 -0.13193884 -0.16406976 -0.12887679
-0.060752656 -0.1171348 -0.11489887 -0.10639627 -0.1261919 -0.0517233 -0.13188615 -0.08749297
-0.08350382 -0.043416183 -0.10813639 -0.118437804 -0.10548172 -0.17499973 -0.14486067 -0.17008403
0.011508775 -0.04700944 -0.06866303 -0.09408375 -0.12534152 -0.05160092 -0.012460654 -0.009251716
-0.09035114 -0.17653728 -0.01826046 -0.050409593 -0.10781097 -0.043142576 -0.023611289 -0.0819752
-0.041129105 -0.06586128 -0.19357465 -0.28616515 -0.018465508 -0.03178045 -0.16692108 -0.095987715
-0.12574258 -0.04361807 -0.17792383 -0.09071976 -0.16693965 -0.1402552 -0.14181043 -0.20131034
00000000: 014a 2dbe 157b c9bc eba2 c6bc 03a2 aabd
00000010: ef83 d7bd 2cde 94bd 9489 79be ed78 be3c
00000020: feda cfbd 04e8 9dbd 465f 03be 3968 06bd
00000030: e07e 2abe 0ca1 9cbd 0adb 3abe 1328 ecbc
00000040: cfc3 61be 6519 99bd 6a9f 8dbd 1d1c 20be
00000050: 60a4 82be c7bb ad3c 1bc7 3fbd a220 d4bd
00000060: 1362 fbbd accc 54be 1b75 f9bd bc32 1dbe
00000070: 03b1 11be 7887 6dbe a824 01be b2e7 c63a
00000080: 01c3 0abe d476 a1bd 8d1e 17be 1fb9 e4bd
00000090: 5577 82bd 52ef 05bd ef97 1dbe b7e7 b1bd
000000a0: 9b4a 47bc 8886 f33b 1f4c c1bd 43c2 5e3c
000000b0: 7062 56bd 1705 b3bd 8bae c7bd 5d4a b5bd
000000c0: 11e3 2dbe 2576 0fbe 93f5 f1bd b49f e1bd
000000d0: a49d 42be 1bee 72bd b551 90bd 5de8 acbd
000000e0: 31dd 21bd 52f8 c5bd 89dc 65be 329c 8cbd
000000f0: c569 81bc fe20 8c3b 1e71 06be 0e22 88bc
00000100: 73e0 3fbe 2ff0 51be 9409 e4bc b12c c6bd
00000110: 5d54 ffb8 de48 0abe c05d f0bd 371a 2b3d
00000120: bb48 1dbd 8548 0dbd cdee 11be 027d 04be
00000130: a238 cebd 8fde 02be 2e34 33be 6e2b c9bd
00000140: b55c eabc 4510 f9bd 2952 dbbc f025 bdbd
00000150: 034a 44be 5cbc 2abd 5e0a 1cbe 5db4 823c
00000160: a848 02bd bfcb a4bd c463 b9bd 4505 1ebd
00000170: b06c b03b ec57 10be 8540 fdbd da19 b7bd
00000180: 6af7 ebbd 7d51 d5bd 50cc 27be 2075 cdbd
00000190: 3883 93bd cccb 88bd 7364 4fbd 303d a2bd
000001a0: 3c92 2bbe 8422 17bd bd36 3dbd b78d b5bd
000001b0: e8f9 73bd 2b3f dbbd 50b0 d1bb 76b4 98bd
000001c0: e3e9 373d 7baf 91bc d85c 97bd 5d1a 94bd
000001d0: 7cda 49bd eec7 82bd 0645 71bd 59e9 27be
000001e0: 6def 83bd ef17 fcbd 6867 dcbd 7625 00be
000001f0: b250 01be 60d0 22be e11f 46be 53d4 d3bd
00000200: dd3e 34bd 8255 a1bd 991a e8bd fde3 64bd
00000210: 04c4 cdbd a1df 34be 4c29 6ebd dab0 05be
00000220: 81cf d3bd 0460 31be 6e40 7bbd ea46 c2bb
00000230: 6e03 5fbd 2dcf 26be 9dd9 3bbe ed42 10be
00000240: d31c 1cbd 86d8 39be bc51 08be ad94 1cbe
00000250: 4264 bbbd d025 16be aed1 d4bd 831a 29bd
00000260: a5c8 ecbc 3246 21bd 0333 47bd 0442 eabc
00000270: d7ab 57bd 213d fdbd 6e66 d33a fd06 07be
00000280: 2d0d 72bd e5eb 47bc 6937 3dbe e49a 97bd
00000290: ee1b a1bc 14b7 09be 436f 7ebe e776 8cbd
000002a0: ad4f 49be abae 0d3d 02e2 a6bc 8c6a 8ebd
000002b0: c26b a1bd 4d9d 97bd bda9 b1bd 16cc 6fbd
000002c0: ba4a 0bbe ff55 4dbd 3a7b 47bd 87c7 4ebe
000002d0: 8116 03be 1856 17be ec90 fdbd 7006 3fbe
000002e0: c4ce 123d 51fd 54be 0eed f4bd ae5c abbd
000002f0: 26fe 4ebe 0d0b 86bb a63a bbbd 8fb3 edbd
00000300: 8d0f 81bd 4cde 0ebe 003e 41be 6c89 bcbd
00000310: f928 12be 55e0 99bd 48db 14be 24c9 1dbd
00000320: d0e9 4abe cb1b d3bd 2a1d 34bd f0bb 7fbd
00000330: 6955 1fbe fa1a 07be e701 28be 47f8 03be
00000340: c7d7 78bd 5fe4 efbd 1950 ebbd 4ae6 d9bd
00000350: 7338 01be d0db 53bd 2a0d 07be 842f b3bd
00000360: 0d04 abbd 2bd5 31bd 9d76 ddbd 858f f2bd
00000370: cd06 d8bd 2133 33be 5b56 14be 822a 2ebe
00000380: 4d8f 3c3c f88c 40bd 349f 8cbd fbae c0bd
00000390: 8759 00be 7c5b 53bd c527 4cbc 8294 17bc
000003a0: 050a b9bd 30c6 34be f696 95bc 4a7a 4ebd
000003b0: ffcb dcbd 45b6 30bd 766c c1bc 9de2 a7bd
000003c0: fe76 28bd 47e2 86bd 6f38 46be 3d84 92be
000003d0: fa44 97bc 382c 02bd 5ced 2abe 3595 c4bd
000003e0: aac2 00be dda8 32bd aa31 36be 48cb b9bd
000003f0: 3af2 2abe 0f9f 0fbe c136 11be 4c24 4ebe

action_model._discrete_distribution.branches.0.weight f4 [3, 256]
0.008132508 0.031437226 -0.022355927 -0.081330955 0.04092066 0.023573114 -0.027558783 -0.1511008
0.100558266 -0.08022701 0.024669308 0.05155003 0.020841107 0.0038396914 -0.02688278 -0.06666176
0.009921496 0.03613535 -0.03184843 0.03215981 0.011402678 -0.10294345 0.023789698 -0.014177541
-0.041249648 0.027497785 0.00097515935 0.120740235 -0.00096689246 0.0034615055 0.054123554 -0.13090011
0.1260121 0.07044193 0.0267002 0.012081799 0.0660252 0.08154253 0.065005004 0.120427996
-0.11552157 -0.012118212 0.025576854 -0.071718276 -0.0059390655 0.042481598 0.058224164 -0.06620285
0.04272896 0.024781687 0.028197568 0.008776717 0.0024571612 0.04897169 -0.018894773 -0.0963831
0.041981503 0.04690082 0.004299071 -0.061560147 0.10957429 0.028004585 -0.069070816 -0.030886287
0.035701565 0.047735665 -0.04856378 -0.002443362 0.027897604 -0.011665092 -0.08026893 -0.050097164
-0.07298465 -0.039859112 -0.004921732 -0.025646592 0.042986955 -0.007745062 0.006164876 -0.0038858014
-0.051977042 -0.02898958 0.035247453 0.018649388 0.04615456 -0.08485582 0.0037598265 0.14226289
0.056996316 -0.09402959 0.005469789 0.08727158 0.09264987 -0.044379458 0.07179727 0.090048596
0.00968393 0.017348416 0.034218527 0.036875874 0.05069106 0.033225827 0.043069992 0.08562779
-0.024178287 0.08901641 -0.069968745 -0.017585905 0.059349753 0.0066803084 -0.14023656 -0.005489485
-0.12794627 -0.122512415 -0.05161883 0.07705865 -0.11063911 -0.0457126 -0.015164906 -0.020790517
0.03401583 0.0501979 -0.010666858 -0.031443086 0.024302086 -0.011289576 0.018234044 -0.030704554
0.080133565 0.010130423 -0.016097667 0.08971007 0.030188814 0.11400833 0.05572273 0.004329
0.0630814 -0.0147161065 -0.022361754 0.08939085 -0.017820045 -0.032840423 0.01997841 -0.043700937
-0.063932694 0.06594476 0.056059625 0.060509097 0.10879281 0.08534096 0.118247226 0.11918569
-0.12631844 0.037875768 0.019250197 0.04361798 -0.05666549 -0.004068089 0.0349345 -0.0787737
-0.0022708785 -0.1648843 -0.011306772 0.010620929 0.056154475 -0.04928813 0.0055818553 -0.036823962
0.018314363 -0.043258764 -0.07224856 -0.056029215 0.052441273 -0.020772908 0.06400932 0.03834775
0.044452816 0.007284069 0.068036385 -0.046340015 -0.049339674 0.061765403 0.04808045 0.050452385
-0.1159747 0.019639632 0.03735144 -0.07711051 0.04749779 -0.011019351 -0.0075488975 -0.021704046
0.0614656 0.03689304 0.052475836 0.02415493 0.060300913 -0.035641402 0.018843545 0.0139518315
0.0033111188 0.091507696 -0.010347039 0.05366222 0.022902288 0.033358734 0.06810935 0.0043497034
0.012577862 0.105033465 -0.065166585 0.04824939 0.13508308 0.065067604 0.038399104 0.013766463
-0.10133715 0.02425107 0.047223557 -0.008855337 -0.05463216 0.04479642 -0.009264411 0.03131444
0.06342574 0.001211491 -0.034289964 -0.0033314796 0.020277323 0.09310167 -0.10977162 -0.11695674
0.046061754 0.052088063 -0.07212819 0.08974978 -0.023089232 0.025899526 -0.08037412 0.047640134
0.08675221 0.1085931 -0.028850008 0.025652582 -0.14174658 0.14120917 -0.0077404557 0.101479314
0.054825142 -0.08779892 0.07139352 0.09110995 0.018129082 0.078847945 0.0125121325 -0.021421574
00000000: 363e 053c 52c4 003d c723 b7bc d890 a6bd
00000010: 6c9c 273d 671c c13c f5c2 e1bc 2bba 1abe
00000020: 7ef1 cd3d 0f4e a4bd 4a17 ca3c 2026 533d
00000030: f8ba aa3c 55a3 7b3b 4739 dcbc f685 88bd
00000040: c58d 223c a902 143d 8073 02bd 01ba 033d
00000050: 4cd2 3a3c 04d4 d2bd 9de2 c23c eb48 68bc
00000060: 64f5 28bd 0943 e13c d6a1 7f3a a846 f73d
00000070: 0e77 7dba 6dda 623b a9b0 5d3d ae0a 06be
00000080: 5109 013e dc43 903d 61ba da3c bdf2 453c
00000090: 3838 873d c5ff a63d 5821 853d f4a2 f63d
000000a0: 9396 ecbd 778b 46bc 8d86 d13c 08e1 92bd
000000b0: 7e9c c2bb 2f01 2e3d 767c 6e3d 5c95 87bd
000000c0: 9004 2f3d f702 cb3c 96fe e63c 38cc 0f3c
000000d0: 5308 213b 8a96 483d 36c9 9abc 8164 c5bd
000000e0: ccf4 2b3d 131b 403d 39df 8c3b 7e26 7cbd
000000f0: 7c68 e03d df69 e53c 0075 8dbd 3d05 fdbc
00000100: ce3b 123d 7986 433d d0ea 46bd d020 20bb
00000110: 8489 e43c f11e 3fbc 0964 a4bd af32 4dbd
00000120: fa78 95bd 4f43 23bd 7b46 a1bb cd18 d2bc
00000130: 1713 303d 4aca fdbb ba02 ca3b eea8 7ebb
00000140: e1e5 54bd 8e7b edbc a25f 103d 9ac6 983c
00000150: 900c 3d3d e3c8 adbd 6c67 763b 5dad 113e
00000160: f874 693d 9692 c0bd ea3b b33b 71bb b23d
00000170: 37bf bd3d 3cc7 35bd 720a 933d 666b b83d
00000180: 59a9 1e3c 441e 8e3c ba28 0c3d 280b 173d
00000190: 6ea1 4f3d ce17 083d 296a 303d 9f5d af3d
000001a0: 8b11 c6bc 3c4e b63d c64b 8fbd 5110 90bc
000001b0: ba18 733d 7de6 da3b 2c9a 0fbe 23e1 b3bb
000001c0: 5904 03be cae7 fabd 446e 53bd edd0 9d3d
000001d0: c296 e2bd 233d 3bbd 3a76 78bc e050 aabc
000001e0: 2f54 0b3d 509c 4d3d 0cc4 2ebc 77ca 00bd
000001f0: 2b15 c73c eaf7 38bc 905f 953c 1e88 fbbc
00000200: 111d a43d 13fa 253c 41df 83bc eab9 b73d
00000210: 884e f73c 337d e93d 843d 643d 49da 8d3b
00000220: d230 813d d31b 71bc ff2f b7bc 8d12 b73d
00000230: 58fb 91bc ae83 06bd c3a9 a33c c1ff 32bd
00000240: 25ef 82bd 0c0e 873d c79e 653d 63d8 773d
00000250: c4ce de3d 3ec7 ae3d 9a2b f23d a117 f43d
00000260: 9f59 01be 9f23 1b3d 97b2 9d3c c4a8 323d
00000270: 131a 68bd 9b4d 85bb 7a17 0f3d 1b54 a1bd
00000280: 05d3 14bb 6ed7 28be 0a40 39bc 6803 2e3c
00000290: 3c02 663d 5ae2 49bd ffe7 b63b b9d4 16bd
000002a0: 0108 963c 1a30 31bd 0ef7 93bd e47e 65bd
000002b0: a9cc 563d f22b aabc 5217 833d 8812 1d3d
000002c0: 2814 363d 33af ee3b a956 8b3d 07cf 3dbd
000002d0: 6618 4abd b8fd 7c3d 02f0 443d 29a7 4e3d
000002e0: 2584 edbd 4be3 a03c d3fd 183d 1dec 9dbd
000002f0: 0b8d 423d 828a 34bc be5c f7bb afcc b1bc
00000300: 5ac3 7b3d 281d 173d e7f0 563d 8fe0 c53c
00000310: 17fe 763d b8fc 11bd c75d 9a3c 3996 643c
00000320: 5bff 583b 6368 bb3d a186 29bc eacc 5b3d
00000330: 949d bb3c 2ba3 083d ea7c 8b3d f587 8e3b
00000340: 6013 4e3c c91b d73d 0f76 85bd 27a1 453d
00000350: 3853 0a3e 2a42 853d 6148 1d3d bb8c 613c
00000360: da89 cfbd 2eaa c63c 7d6d 413d fa15 11bc
00000370: f9c5 5fbd 737c 373d c2c9 17bc 9243 003d
00000380: 5be5 813d e4ca 9e3a a273 0cbd f454 5abb
00000390: a11c a63c 17ac be3d f1cf e0bd 0487 efbd
000003a0: 40ab 3c3d 4b5a 553d f2b7 93bd bcce b73d
000003b0: a125 bdbc 3e2b d43c 309b a4bd 4d22 433d
000003c0: 25ab b13d 0f66 de3d da56 ecbc 5d25 d23c
000003d0: 0426 11be 2399 103e a6a3 fdbb 63d4 cf3d
000003e0: 5490 603d eccf b3bd c436 923d da97 ba3d
000003f0: 7183 943c 087b a13d b0ff 4c3c 4c7c afbc

action_model._discrete_distribution.branches.0.bias f4 [3]
0.0024885393 -0.082196996 0.0727868
00000000: c316 233b e656 a8bd 3f11 953d
