Unity/2Dtest/Assets/ML-Config/model_fixed.onnx (onnx, 4365 bytes, 6 tensors)

_hidden_layers.0._model.0.weight f4 [20, 4]
000000 f0 a7 63 bf 56 1c e4 be 99 28 3e 3e 98 0a 71 be
       -0.8892813 -0.4455287 0.18570174 -0.23539197
000010 a0 d8 b2 3e 26 c3 de 3e 06 31 52 bf 10 b2 81 be
       0.34930897 0.4350826 -0.82106054 -0.25331163
000020 89 39 08 3f 51 9d 4b bf fd 16 6b 3e e9 c1 b3 3e
       0.5321279 -0.7953692 0.22957988 0.3510888
000030 4e aa e9 bc f9 ab 1a 3f c2 af bb 3e 34 5b 20 bf
       -0.02852359 0.6041866 0.3665753 -0.62639165
000040 af b3 30 bf 8e 55 05 bd f6 c3 d8 be 90 af 1a bf
       -0.69024175 -0.032552294 -0.42337006 -0.6042414
000050 22 23 10 3f 6b 70 a9 3e 5f 1e 41 3e fb 05 35 bf
       0.5630361 0.3309358 0.18859242 -0.7071225
000060 b8 8d 0a 3f 69 2d 7a be 0b 02 44 bf 5d 69 b4 bd
       0.54122496 -0.24431385 -0.7656562 -0.08809159
000070 ad 5e 17 3f 39 ba 55 3f 93 04 b5 be fd 8a cb 3d
       0.5912884 0.8348728 -0.35355052 0.09938619
000080 f0 39 5c 3f 42 b0 25 be eb 2b ca 3e 8d e6 a5 bd
       0.86025906 -0.16180518 0.39486632 -0.08100615
000090 3b c7 41 bf a8 0c bc be 86 81 13 3f 63 e1 62 bd
       -0.75694627 -0.36728406 0.5761951 -0.055390727
0000a0 e4 ea 6d be 9a 3f 70 bf b7 71 00 3f f8 80 01 3e
       -0.23234135 -0.9384705 0.50173515 0.12646854
0000b0 80 c2 65 bf 6a a5 3f 3d 2c a4 b7 3d 89 2c bc be
       -0.8974991 0.04678861 0.0896686 -0.36752728
0000c0 f5 15 fa 3e 91 f5 95 3e 06 56 3b 3f 03 30 d1 3e
       0.48844877 0.29288915 0.73178136 0.40856943
0000d0 92 16 1d 3f 40 90 17 be 7f 4d 2c 3f 1f e4 fb be
       0.61362565 -0.14801121 0.6730575 -0.4919748
0000e0 77 ab 59 3f bf 90 c9 be 4c ec 4f 3e f2 16 51 be
       0.8502726 -0.39368245 0.20304984 -0.20418909
0000f0 f5 16 a4 3d 08 fa 48 3f 74 e9 d8 be 55 84 13 bf
       0.08012191 0.7850652 -0.4236561 -0.576238
000100 87 33 ac be 2b e3 a6 bd 42 24 19 3f 00 e2 39 3f
       -0.33633062 -0.081487976 0.5982095 0.72610474
000110 f3 5c 22 bf fb c1 8d 3e c9 7f 20 bf 5b 2f df 3e
       -0.6342308 0.27687058 -0.62694985 0.43590817
000120 dc 27 26 be 0e 2b 13 bf 83 2c 51 bf 12 3d 53 3e
       -0.16226143 -0.5748757 -0.81708544 0.20628765
000130 a6 c8 8e be d6 5d ec be 0b a2 f0 3d 5f e5 59 3f
       -0.27887458 -0.4616534 0.11749657 0.8511562

_hidden_layers.0._model.0.bias f4 [20]
000000 a4 aa d7 3e ad 2b 26 be 58 bf 6c 3e 33 9d 40 bd
       0.42122376 -0.16227598 0.23119867 -0.047024917
000010 97 e7 c8 3c f7 b5 ab 3d bd 97 18 be 9a 98 53 be
       0.024524493 0.083843164 -0.14901634 -0.20663682
000020 55 e2 79 3e f0 8b 4a 3e 0e f0 68 3e 8d ba 4c 3e
       0.24402745 0.19779944 0.22747824 0.19993038
000030 53 df 0e bd 27 9c 80 3e 10 cd c3 3e 4a 2a 86 be
       -0.034880947 0.25119135 0.38242388 -0.2620414
000040 6b ea 3c 3e 7f 79 9c be 14 96 89 3c 5a 68 37 3e
       0.18448798 -0.30561444 0.016795196 0.179109

_hidden_layers.1._model.0.weight f4 [20, 20]
000000 aa a3 95 3e 29 0d 15 3e 67 29 75 3e 10 ee d3 3d
       0.29226428 0.14555801 0.23941575 0.10348141
000010 6a c6 59 3e 29 82 b1 be 1d a4 22 3f da 0a c0 3e
       0.21267095 -0.34669617 0.63531667 0.3750828
000020 9d e5 cb be 42 c4 dc bd d0 80 aa bd 7e 80 03 be
       -0.3982362 -0.10779621 -0.0832535 -0.12841985
000030 e3 f8 91 be 45 26 6e be c0 1d 9b be 23 f0 39 3e
       -0.28510198 -0.23256786 -0.30296135 0.18158011
000040 1f f4 a7 bd 88 f0 d5 3c b5 22 0b 3e f6 68 90 bd
       -0.08200859 0.02611567 0.13587458 -0.0705127
000050 92 cb 6b 3d 86 82 3e be c3 00 18 3d 6c 88 d7 3d
       0.057567187 -0.18604478 0.0371101 0.10524067
000060 9a 73 5b be df 38 fc 3e 2f 78 9f be a6 57 b8 3c
       -0.21430817 0.4926214 -0.3114638 0.022502732
000070 bb 79 15 bd 61 71 c5 3e 80 7e 35 3e 3e 97 a8 be
       -0.036493044 0.38563064 0.17724037 -0.3292789
000080 5b d3 0d 3f 6a bc 99 3e 55 76 8e be dc 51 9b be
       0.5540063 0.3002656 -0.27824655 -0.3033589
000090 5a b1 3c 3e f6 22 76 be 68 22 86 be 60 7b 68 bd
       0.18427029 -0.24036774 -0.26198125 -0.056758285
0000a0 d2 01 4e bd d7 71 cd 3e 37 9f 80 be ad 4d 72 3e
       -0.050294705 0.40125915 -0.2512147 0.23662443
0000b0 37 0d 80 bd 30 d1 a4 be a8 38 8e 3b 66 81 b1 3e
       -0.062525205 -0.32190847 0.00434025 0.34669036
0000c0 83 0b 0e be 60 c3 b0 3c 56 0f 90 be 0b 10 d0 be
       -0.13871579 0.021577537 -0.281367 -0.4063724
0000d0 e6 c3 25 3e 3a 86 74 be d4 f5 5b bd ab 86 a0 3e
       0.1618801 -0.23879328 -0.053701237 0.31352744
0000e0 e5 97 9f bc c2 45 35 3e f7 03 a7 3d 5d 85 28 bf
       -0.019481609 0.17702392 0.08155053 -0.65828496
0000f0 40 a4 0f 3f 54 dd 7f 3e 02 42 a1 3e ea 22 9d bc
       0.5611 0.24986774 0.31495672 -0.019181687
000100 ef 35 3f 3e f4 f9 ef 3d 15 68 11 bd 2a 03 e8 be
       0.18672918 0.11717597 -0.03549965 -0.45314914
000110 91 d9 2f 3e 54 d6 a1 3e 4a 8a 97 3e 53 ad 8c be
       0.17172839 0.31608832 0.29597694 -0.27475986
000120 ff 6b d2 3d c7 a6 01 3e 7a e3 ae 3e 1a f3 d5 bd
       0.10274505 0.12661277 0.34157926 -0.104467586
000130 e9 88 da 3d a0 01 00 bc 32 4b 91 3d e6 f0 f8 3e
       0.10670645 -0.007812887 0.070944205 0.4862129
000140 97 1b 8c 3d e2 ea 6a be 22 ec 07 3f f3 96 da bd
       0.068412 -0.22941163 0.53094685 -0.106733225
000150 14 95 81 3e ba b5 8b bd 40 2b 4d 3d 8c 5e ae be
       0.2530905 -0.06821771 0.050090075 -0.3405651
000160 c9 28 a6 3e 48 d3 82 3d 54 1f e1 3e 9a 07 ca 3d
       0.32452992 0.06387955 0.43969214 0.09864731
000170 78 bd 1f 3f 5a 1e 45 be 1c 56 8b bd e9 ba 70 be
       0.6239848 -0.1924986 -0.068035334 -0.235088
000180 ba 43 4f 3c 7d 86 10 bd a0 63 b6 bc 9f 5c 8d bd
       0.012650425 -0.035284508 -0.022264302 -0.06902432
000190 46 21 fa 3e f9 5a 1e 3e 02 cd 99 3e 0b e8 23 3e
       0.4885351 0.15464391 0.3003922 0.16006486
0001a0 47 6b 86 3d ea c4 7a 3e 2a 56 d3 bd 79 d3 de be
       0.0656343 0.24489179 -0.10319169 -0.43520716
0001b0 c6 cb 62 3e 52 28 63 bc b6 2d 18 3f 8f 5e de bd
       0.22148046 -0.013864594 0.5944475 -0.10857879
0001c0 b4 35 53 bd e1 b5 1a be 33 b5 1b 3e 51 6a 19 bf
       -0.051564887 -0.15108444 0.15205841 -0.5992785
0001d0 42 b0 f3 bd 91 03 0b be d2 90 28 be 92 5c ab 3e
       -0.11898853 -0.13575579 -0.16461495 0.33469063
0001e0 8c de 66 be f9 b0 fa bd 0d 18 b2 be ce 32 bd 3e
       -0.22545832 -0.12240786 -0.34783974 0.36952823
0001f0 0b 70 71 be ae b4 bc bd eb d1 d9 bc 5c 3c a3 3e
       -0.23577897 -0.092141494 -0.026589355 0.31881988
000200 31 61 a8 be a7 c3 9f be 0d e0 b3 be 50 f1 92 bd
       -0.3288665 -0.31203958 -0.35131875 -0.07174933
000210 9c 77 0a bc 21 2b e6 3d e5 50 15 bb 20 58 ac 3e
       -0.008451369 0.11238695 -0.0022783813 0.33660984
000220 26 18 18 3c 02 38 f6 3e fe 0b 3f 3e 43 ff 12 bf
       0.009283101 0.48089606 0.18656918 -0.5742075
000230 79 8b 83 3e 52 3d 5c 3d 88 1e ae 3e 0f d5 c9 be
       0.25692347 0.053769417 0.34007668 -0.39420363
000240 47 e0 8e 3d d1 17 80 bd b1 1c f3 be 5e 15 52 be
       0.06976371 -0.062545426 -0.47482827 -0.20515963
000250 8e 24 76 3e 22 17 7c be f9 82 d5 3e 7c 5f a4 3e
       0.24037382 -0.246182 0.41701487 0.321041
000260 86 a1 61 be c3 5d 4b 3e e8 fd 9d 3e 87 c6 c6 be
       -0.22034273 0.19859986 0.30857778 -0.3882334
000270 90 d6 21 be 86 7d d2 bd c5 87 80 be 34 b0 8d 3d
       -0.15804505 -0.10277848 -0.25103584 0.06918374
000280 cb c2 15 bd de d1 a7 be 31 68 31 3e bd dc 27 ba
       -0.036562722 -0.32777303 0.17324902 -0.0006403437
000290 87 72 11 bd 05 0a 90 bd 63 83 6b be 6d a2 c3 3d
       -0.035509612 -0.07033161 -0.22999339 0.09552465
0002a0 14 ba 02 3f f8 a4 80 3e 6c 5b f9 3e b4 4b 7a be
       0.5106518 0.2512586 0.48702562 -0.24442941
0002b0 cb 82 0d 3f c9 69 72 be 2d dd 66 3e 26 0b fb bb
       0.552777 -0.23673166 0.2254531 -0.007661241
0002c0 7e d8 62 3e eb 46 6d be b2 aa 98 bd fa 23 21 3e
       0.22152898 -0.23171584 -0.074544325 0.1573638
0002d0 3f 3d dc 3d 77 e0 10 3f f2 63 df 3d e3 c8 2e 3e
       0.10753869 0.56592506 0.10907735 0.1706882
0002e0 1f 74 f6 3d d9 2e d0 bd 1d ab 85 be c7 5d 88 bd
       0.12033867 -0.101651855 -0.26107112 -0.066585116
0002f0 b7 81 cc be 3a 42 e1 be 11 4b 2a be 42 50 83 be
       -0.39942715 -0.4399584 -0.16630198 -0.2564717
000300 df fb b6 bd 02 71 3d be 46 80 7a 3b d3 c8 47 bd
       -0.08934759 -0.1850014 0.003822343 -0.048775505
000310 64 1b 08 be ca 7a be 3e 79 2d b1 3d 88 d3 be be
       -0.13291699 0.37203056 0.08651251 -0.3727076
000320 e7 8d 5b be be 4c d5 be 87 f0 17 bd 52 ff b1 be
       -0.2144085 -0.41660112 -0.03709462 -0.34765106
000330 dc dd 42 3e 62 ec 38 3e cc 00 88 be 77 8a ab be
       0.19029945 0.18058923 -0.26563108 -0.33504078
000340 38 05 1f 3e 60 56 8d 3d 1f 61 af 3e f8 d1 d4 3c
       0.15529335 0.0690124 0.34253785 0.025979027
000350 08 45 19 3e a4 d0 a8 3e d9 1a 44 3b 40 17 e8 be
       0.1496774 0.3297168 0.002992323 -0.45330238
000360 ab 29 b9 be b1 d0 1c bd d9 c1 49 3b 34 ed ef 3e
       -0.36164603 -0.03828496 0.0030785708 0.4686066
000370 57 72 2e be db fd 0c 3e 3d 2f 0c bf 95 d2 43 3d
       -0.17035805 0.13768713 -0.5475958 0.04780825
000380 5f 80 5b be 81 30 d5 3d 1d 51 78 bd 2f d9 be 3e
       -0.21435688 0.10409642 -0.06062423 0.37275073
000390 d2 4c bd be a7 24 2b 3e fc 86 cc be 4f ad d2 be
       -0.36972672 0.167132 -0.39946735 -0.4114785
0003a0 2d 12 6b 3e f4 a9 3e be 2c c0 81 be 43 bd f7 3e
       0.22956152 -0.1861952 -0.25341928 0.48386583
0003b0 9c 67 b8 bc 0f 30 0a bd 28 ba 39 3e e6 5e ba bc
       -0.022510342 -0.03373724 0.18137419 -0.02275033
0003c0 fc ab 41 be dd 4b cf 3b 99 65 fe bd 8e 7b f3 bd
       -0.18913263 0.0063261823 -0.12421722 -0.118888006
0003d0 ad 73 d7 3d 6a ed cb bd 13 5c 9d 3d b9 a1 84 be
       0.1052011 -0.099573925 0.076835774 -0.25904635
0003e0 ab 91 4c 3d 59 71 86 3e 4c c5 34 3f fd d6 04 3e
       0.049943607 0.26258352 0.7061355 0.12972637
0003f0 36 c3 26 3e 5d 3f 34 be 44 15 e9 3e 77 94 cf be
       0.16285405 -0.17602296 0.45524037 -0.40542957

_hidden_layers.1._model.0.bias f4 [20]
000000 14 24 b8 bd 70 e2 d9 3c d9 5e 1d be 2e 49 0f 3e
       -0.08991256 0.026597232 -0.15368213 0.1399276
000010 5f 54 a0 3e 65 b5 5a 3e 22 99 cd bd c0 2f 54 3e
       0.3131437 0.21358259 -0.100389734 0.2072134
000020 55 5b ea 3d f9 88 e8 bc 60 09 5f 3e d6 99 7e be
       0.114432015 -0.028385626 0.2178092 -0.24863371
000030 6b 28 35 3e 56 35 17 3e f6 21 22 be f6 6e 65 3e
       0.176912 0.1476644 -0.15833268 0.2240561
000040 d1 56 3a be 37 ec 47 be e7 44 50 3e b9 f4 03 be
       -0.1819718 -0.19523703 0.20338784 -0.12886323

_logits._model.0.weight f4 [3, 20]
000000 08 c0 8b 3e d8 0a 9f be f7 7d 8c 3e 93 9e db be
       0.27294946 -0.3106296 0.27439854 -0.4289442
000010 be 33 c7 be 6c f5 da be e8 f1 c5 3e e3 78 b4 be
       -0.38906664 -0.42765367 0.38661122 -0.3524848
000020 47 83 97 be b7 fb 81 3e 1c 51 a5 be af 44 bf 3e
       -0.29592344 0.25387356 -0.32288444 0.3735709
000030 02 d5 b4 be 12 d8 cf be 79 66 b7 3e 8e 1b bb be
       -0.35318762 -0.40594536 0.35820368 -0.3654446
000040 04 d2 95 3e 86 1b ac 3e 9b ab 87 3e 99 ca cb 3e
       0.29261792 0.3361475 0.26498112 0.39803007
000050 ea a1 15 be b2 d7 55 3e 56 d1 0d 3d c3 d2 7d bd
       -0.14612547 0.20883062 0.034623466 -0.061968576
000060 6e ce b3 3d d2 e9 02 bc 3e 21 42 3d 61 3d 80 3c
       0.08779608 -0.007990317 0.047394983 0.015654268
000070 c8 37 1d 3e da 58 91 bd 23 cf f6 3c 1a ba ad 3b
       0.1535331 -0.07097025 0.030128067 0.005301726
000080 27 fc 1d 3d 16 80 e4 3d 02 9f 4b 3d 44 9c 17 bc
       0.03857055 0.11157243 0.04971219 -0.009253565
000090 1e ce 84 3d fa 75 bb bc 6c 48 55 be af 8b f5 bd
       0.06484626 -0.022883404 -0.20828408 -0.11989533
0000a0 fa c6 1b be 16 eb d1 3d f7 07 b5 be 33 f5 0a 3f
       -0.15212622 0.10249917 -0.3535764 0.54280394
0000b0 d6 05 a1 3e 70 76 01 3f 2a 4c e8 be 76 03 b6 3e
       0.31449765 0.50571346 -0.4537061 0.35549515
0000c0 05 8d 26 3e a0 66 57 be 91 be af 3e c6 40 d7 be
       0.16264732 -0.21035242 0.34325078 -0.42041606
0000d0 c6 47 b6 3e 6f bf 97 3e 8e bc e7 be fe 68 e2 3e
       0.35601634 0.2963824 -0.45261043 0.44220728
0000e0 a8 92 e0 be bf 1d b7 be 64 75 4f bd 50 e7 97 be
       -0.4386189 -0.35764882 -0.05064906 -0.29668665

_logits._model.0.bias f4 [3]
000000 7f 96 ad 3d 18 ea a5 be 50 ec 91 3e
       0.084759705 -0.32405162 0.28500605
