Unity/2Dtest/Assets/ML-Config/model_wrapped.onnx (onnx, 22142 bytes, 6 tensors)

ray_torchmodel._hidden_layers/_hidden_layers/0/_model/_model/0/Gemm.weight f4 [64, 4]
0	0x3ddc6915	0.1076223
1	0xbed29dae	-0.41135925
2	0xbf8533df	-1.0406455
3	0xbe6d6b3f	-0.23185442
4	0x3f296369	0.6616731
5	0xbed84c40	-0.42245674
6	0xbf050ed0	-0.5197573
7	0x3edc847e	0.43069834
8	0xbee56d7a	-0.44810086
9	0x3df0ea00	0.11763382
10	0x3eff8470	0.4990573
11	0x3f51fcda	0.82026446
12	0x3e439aa6	0.19101962
13	0x3f7da467	0.99078983
14	0xbe01879a	-0.12649384
15	0x3f068add	0.5255564
16	0xbe98c949	-0.29841068
17	0xbf27c668	-0.6553712
18	0xbf396bcf	-0.7243013
19	0xbe8c9b87	-0.27462408
20	0xbec9552a	-0.39322788
21	0xbf33305a	-0.69995654
22	0xbebaa8c2	-0.36456877
23	0xbf166ac6	-0.58756673
24	0x3f262abc	0.6490896
25	0xbe0b59cf	-0.13608478
26	0x3f4c9b3f	0.79924387
27	0x3eeb93f5	0.4601132
28	0xbe418d84	-0.1890164
29	0x3f9831c3	1.1890186
30	0xbeb73846	-0.3578512
31	0xbe872ea4	-0.2640277
32	0x3db6890c	0.08912858
33	0xbe1ae3b4	-0.15125924
34	0xbf3f3a1e	-0.74698055
35	0xbf302ff2	-0.6882316
36	0x3f0af51c	0.5428026
37	0xbf3a7114	-0.72828794
38	0x3eae460a	0.3403781
39	0x3e9ca7e1	0.3059683
40	0xbf8c3e7c	-1.0956569
41	0x3eb2c2c8	0.3491423
42	0x3c90139d	0.017587477
43	0xbe1f1bdf	-0.15537976
44	0xbf1e78cb	-0.61903065
45	0xbe9582f9	-0.29201487
46	0xbf043110	-0.51637363
47	0x3f0a2edb	0.53977746
48	0x3f10cdc9	0.56564003
49	0x3eeef7bb	0.46673378
50	0xbf32ad38	-0.6979556
51	0xbee1e080	-0.44116592
52	0xbeb83f4b	-0.3598579
53	0x3db75411	0.08951581
54	0x3f60b788	0.87780046
55	0xbf04fb2c	-0.5194576
56	0xbe585d53	-0.2112935
57	0x3e817865	0.25287166
58	0x3f4391e2	0.76394475
59	0xbf219d55	-0.63130695
60	0xbd2e0bd4	-0.04249175
61	0x3f63a9d1	0.88930994
62	0xbf323b06	-0.6962131
63	0xbe9912b9	-0.29897097
64	0xbe473c47	-0.19456588
65	0x3f3b16a6	0.73081434
66	0x3f66f87a	0.90222895
67	0xbd12b95d	-0.035821307
68	0x3f3d038b	0.7383353
69	0xbeb66f20	-0.35631657
70	0x3f3dcef6	0.7414392
71	0xbd494418	-0.049137205
72	0x3e850abd	0.25984755
73	0xbf0c5758	-0.54820776
74	0x3f6339b7	0.8875994
75	0x3e276ecd	0.16350861
76	0x3e229987	0.15878879
77	0x3ed8e924	0.42365372
78	0xbf3be46e	-0.7339543
79	0x3f2f27b8	0.6841998
80	0x3f4c7670	0.7986822
81	0x3e95620a	0.2917636
82	0x3e2f1eb0	0.1710155
83	0xbf0d17d2	-0.5511447
84	0x3eec69d4	0.4617449
85	0x3e3fc286	0.18726549
86	0xbc0f0819	-0.008729958
87	0x3f800d89	1.0004131
88	0xbf705035	-0.93872386
89	0xbf16fa6b	-0.5897586
90	0xbef45591	-0.47721532
91	0x3e1f315b	0.15546171
92	0x3f1fdd0e	0.6244668
93	0xbf240488	-0.64069414
94	0x3f02e929	0.51137024
95	0x3eadb679	0.33928278
96	0xbf6644f9	-0.89948994
97	0xbf0dd121	-0.5539723
98	0x3e97a4b6	0.29617852
99	0x3eb137b3	0.34612808
100	0x3f04efac	0.5192821
101	0xbe086086	-0.13318071
102	0xbe5caaae	-0.21549484
103	0xbf74383e	-0.9539832
104	0xbec647fd	-0.38726798
105	0x3e8e2cf7	0.2776868
106	0x3f03b10c	0.5144203
107	0xbf5c2bd2	-0.86004364
108	0x3f59e03f	0.851078
109	0x3f0632e6	0.52421415
110	0xbe26d2ce	-0.16291353
111	0x3ea8b42d	0.32949963
112	0xbef3d377	-0.47622272
113	0x3f336c8c	0.70087504
114	0xbef15519	-0.47135237
115	0x3e8fb075	0.28064314
116	0xbf3b8e18	-0.7326369
117	0x3e934ba5	0.2876865
118	0xbed55c69	-0.41672066
119	0xbedc41c9	-0.4301894
120	0xbd81fb94	-0.06346813
121	0x3f44e249	0.76907784
122	0xbf2e15fe	-0.6800231
123	0x3ebfc356	0.37453717
124	0xbef26440	-0.4734211
125	0x3e52dff4	0.20593244
126	0x3e1e701b	0.15472452
127	0x3f7ab4c5	0.9793208
128	0xbf2d53bd	-0.677059
129	0x3eab088f	0.33404967
130	0xbf20ab84	-0.6276171
131	0x3ee56d1e	0.44809812
132	0x3e8c5cd6	0.27414578
133	0xbf9477ec	-1.1599097
134	0xbe85dbea	-0.26144344
135	0xbdac379b	-0.084090434
136	0x3c8fd713	0.01755861
137	0x3ba24e9e	0.0049532196
138	0xbf2c711f	-0.6736011
139	0xbf5a7d1b	-0.85347146
140	0xbe4f5506	-0.20247278
141	0xbe18281e	-0.14859053
142	0x3f858a61	1.0432855
143	0x3ed2ffdb	0.41210827
144	0x3f70f762	0.94127476
145	0xbf1cdc65	-0.61273795
146	0xba8f272e	-0.0010921711
147	0xbe8243bd	-0.25442305
148	0x3f0534a6	0.5203346
149	0x3e65c16b	0.22437064
150	0xbf3041bd	-0.6885031
151	0x3f195a09	0.5990301
152	0xbf2dd0b5	-0.67896587
153	0x3ea8b0d9	0.32947424
154	0x3f3c1816	0.7347425
155	0x3e8843a6	0.26614112
156	0xbe7c82c6	-0.24659261
157	0xbed60458	-0.4180019
158	0x3f09c1f2	0.5381156
159	0x3f3a84c7	0.7285885
160	0xbf02aa9f	-0.510416
161	0x3f859009	1.0434581
162	0xbdc8236d	-0.09772382
163	0x3c5489fa	0.012972349
164	0xbf1d1538	-0.613605
165	0xbf7dc65b	-0.9913079
166	0x3e1fd060	0.15606833
167	0xbe4a409b	-0.19751208
168	0x3f1f5dc3	0.62252444
169	0xbe92e83c	-0.28692806
170	0x3f3f17a9	0.7464548
171	0x3ed69ad7	0.41915008
172	0xbf470f8b	-0.7775809
173	0xbe834360	-0.2563734
174	0x3f1c5699	0.6106964
175	0xbebddc8d	-0.3708233
176	0xbdc0ad66	-0.09408073
177	0x3e66a685	0.2252446
178	0x3c0f9ed4	0.008765895
179	0xbf898384	-1.074326
180	0xbe8f3d99	-0.27976683
181	0x3f08668b	0.5328147
182	0xbf3101f2	-0.69143593
183	0x3ee2ef46	0.44323176
184	0xbef82145	-0.48462883
185	0x3f801700	1.0007019
186	0xbe917b29	-0.28414276
187	0x3e7535a6	0.23946247
188	0xbf0c82c8	-0.54887056
189	0x3f1586ce	0.5840882
190	0xbc08c83b	-0.00834852
191	0x3f1fd8a3	0.62439936
192	0x3f13a887	0.5767903
193	0x3f60bf4d	0.877919
194	0x3eacbb45	0.33736625
195	0x3e8192e2	0.25307375
196	0xbee02594	-0.4377867
197	0x3f5825a4	0.84432435
198	0xbd3c6622	-0.04599584
199	0x3f23396e	0.63759506
200	0x3ece3f1b	0.4028252
201	0xbe6c47ec	-0.23074311
202	0x3e63e11c	0.22253841
203	0xbf79d234	-0.9758637
204	0xbdd22d40	-0.10262537
205	0xbf1e3cc1	-0.61811453
206	0xbf88e791	-1.0695668
207	0x3ea2d272	0.31801182
208	0x3eca88ed	0.3955759
209	0xbea72308	-0.32643914
210	0x3f55d7b0	0.8353224
211	0xbead9dce	-0.33909458
212	0x3eb12ee8	0.346061
213	0xbe2e4c76	-0.17021355
214	0xbf6bf187	-0.92165416
215	0x3f061345	0.5237315
216	0x3f31c6ba	0.6944386
217	0xbf0286c1	-0.5098687
218	0xbeb360ef	-0.35034892
219	0x3f2483d8	0.6426368
220	0x3e075a37	0.13218008
221	0xbe6c78a0	-0.2309289
222	0xbdbc773f	-0.09202432
223	0x3f96f682	1.1793978
224	0x3f106933	0.5641052
225	0xbf227b9a	-0.6346985
226	0xbd2c0b07	-0.042002704
227	0xbf290108	-0.660172
228	0x3e59a29f	0.21253441
229	0xbeaeef7d	-0.3416709
230	0xbf6a30b4	-0.91480565
231	0xbe8807b3	-0.26568374
232	0x3f90025b	1.1250719
233	0x3d2df3d9	0.04246888
234	0x3db2f10f	0.087373845
235	0x3e919688	0.2843516
236	0xbe1bf3a2	-0.15229657
237	0x3ec35ea7	0.38158152
238	0x3bc55757	0.0060223746
239	0xbf890a5f	-1.070629
240	0xbf1b8e05	-0.6076358
241	0x3f6c2323	0.92241114
242	0xbe4a9c21	-0.19786121
243	0x3e36f3e8	0.1786648
244	0x3ea4e8eb	0.32208952
245	0xbe9ea274	-0.30983317
246	0x3e86d13e	0.26331514
247	0xbf5fa42d	-0.8735989
248	0xbdeff83b	-0.11717268
249	0x3ec07767	0.37591097
250	0x3f720926	0.9454521
251	0x3e040cfe	0.12895581
252	0x3e9dd90c	0.30829656
253	0x3f93f55f	1.1559256
254	0xbe348118	-0.1762737
255	0x3de11776	0.10990803

ray_torchmodel._hidden_layers/_hidden_layers/0/_model/_model/0/Gemm.bias f4 [64]
0	0xbead174c	-0.33806837
1	0x3e2446e5	0.16042669
2	0x3d5fb26b	0.054613512
3	0x3c947eaa	0.018126804
4	0xbca2b26a	-0.019860465
5	0x3becc81c	0.0072260033
6	0x3deb6325	0.1149352
7	0xbe8e9cce	-0.27854007
8	0x3d1a42b3	0.037661266
9	0x3f1878f4	0.5955956
10	0x3ebc11b5	0.3673226
11	0xbe660c77	-0.22465692
12	0xbe20d56e	-0.15706417
13	0xbd8e5557	-0.06949871
14	0x3de249a7	0.11049204
15	0x3c967a00	0.018368721
16	0xbe982277	-0.29713795
17	0x3e9ff118	0.31238627
18	0x3ebf9fa6	0.3742649
19	0xbe52fab0	-0.20603442
20	0xbdda426c	-0.106572
21	0x3e9243b0	0.28567266
22	0xbe9c1a71	-0.30488923
23	0x3e720e69	0.2363831
24	0x3d0f3b03	0.034968387
25	0xbe5e3c8f	-0.21702789
26	0xbca16d6c	-0.019705497
27	0xbd017a18	-0.03161058
28	0xbf106132	-0.5639831
29	0xbe4b0fb6	-0.19830212
30	0xbe5c1ef4	-0.21496183
31	0x3cd4ddd6	0.025984686
32	0xbee8b033	-0.4544693
33	0x3e9fd617	0.31218025
34	0xbefcf5bb	-0.49406227
35	0x3de8be25	0.11364392
36	0x3f119629	0.5686975
37	0x3eb081e7	0.34474108
38	0x3ca3ea43	0.020009166
39	0xbecc4b2a	-0.39901096
40	0xbf527483	-0.8220903
41	0x3dd39f92	0.1033317
42	0x3e22056d	0.15822382
43	0xbe8477d4	-0.25872672
44	0x3cbe9a8e	0.023267057
45	0xbe840f7b	-0.2579306
46	0xbf175f27	-0.59129566
47	0xbea51527	-0.322427
48	0xbf15e7ed	-0.58557016
49	0xbdf68fd6	-0.12039153
50	0xbea4f86a	-0.32220775
51	0xbd6f32c9	-0.058398042
52	0x3ec48e84	0.3838998
53	0xbd8f0f39	-0.06985325
54	0x3e88073d	0.26568022
55	0xbe8c30d8	-0.27381015
56	0x3e7b1303	0.24518971
57	0xbdaec7f5	-0.085342325
58	0xbe22a6eb	-0.15883987
59	0xbddd3d51	-0.10802711
60	0xbe838546	-0.25687617
61	0xbe5c142d	-0.21492071
62	0xbe9a524d	-0.30140916
63	0xbc7bdba3	-0.01537219

ray_torchmodel._hidden_layers/_hidden_layers/1/_model/_model/0/Gemm.weight f4 [64, 64]
0	0x3dcf7b03	0.101308845
1	0xbdd97584	-0.106181175
2	0x3e3afca0	0.18260431
3	0xbd896b5e	-0.06709932
4	0x3d9ab656	0.07554309
5	0x3d29bdf4	0.04144092
6	0xbe03ccc8	-0.12871087
7	0x3e24e8d7	0.16104446
8	0xbda6d8d3	-0.08146825
9	0x3d5b6785	0.05356552
10	0xbe985aac	-0.29756677
11	0x3e621aea	0.2208058
12	0xbdc6f91a	-0.09715481
13	0x3d586c61	0.052837733
14	0x3d3201c8	0.04345873
15	0x3da9a034	0.082825094
16	0x3bbb2d9b	0.0057122237
17	0x3d9ab16a	0.0755337
18	0x3e3d2db7	0.1847447
19	0x3cbf6f50	0.023368508
20	0xbe29e1b2	-0.16590002
21	0xbe8075a0	-0.2508974
22	0xbe76b4cc	-0.24092406
23	0x3d42a7bd	0.04752325
24	0xbeb8c69e	-0.36089033
25	0x3e327262	0.17426446
26	0xbe89701b	-0.26843342
27	0x3db3183d	0.087448575
28	0x3c2d5952	0.010580378
29	0xbd4a9d82	-0.049466617
30	0xbc25fb6a	-0.010130743
31	0xbe814e32	-0.2525497
32	0x3d4c2857	0.04984316
33	0xbe0c556b	-0.1370446
34	0xbe95bb5a	-0.292445
35	0xbc4a29f1	-0.012339101
36	0x3d7c0ef3	0.061537694
37	0x3e01f150	0.1268971
38	0x3c0e6d05	0.0086929845
39	0xbd31fa01	-0.043451313
40	0x3e86c0e4	0.2631904
41	0xbdc9e91e	-0.09858917
42	0xbd120b2f	-0.035655197
43	0xbd446b01	-0.04795361
44	0x3df6aec3	0.12045052
45	0xbdd891f8	-0.10574716
46	0x3e182e10	0.14861321
47	0x3df381e9	0.11890013
48	0xbe3d584a	-0.18490711
49	0xbd2e792e	-0.042596035
50	0xbd53a5b2	-0.05167169
51	0x3e2644a0	0.16237116
52	0xbd81a037	-0.06329387
53	0x3eced961	0.40400222
54	0x3e41a8af	0.18912004
55	0xbe5e266e	-0.21694347
56	0xbdc669af	-0.09688126
57	0xbdf734d6	-0.120706245
58	0x3d3c5252	0.045976944
59	0x3e039895	0.12851174
60	0x3e9bc1b7	0.3042123
61	0x3ea9ce8c	0.33165395
62	0x3e35c868	0.1775223
63	0x3e74e196	0.23914179
64	0xbe9c7696	-0.30559224
65	0x3e2550b9	0.16144074
66	0x3e7f061b	0.24904673
67	0xbd015336	-0.031573497
68	0xbe29fc6e	-0.166002
69	0xbc0116a9	-0.007878938
70	0xbdd8f095	-0.105927624
71	0xbeccacb4	-0.39975512
72	0x3dbbb069	0.09164507
73	0xbdf3de7c	-0.1190767
74	0x3e4d955a	0.20076504
75	0x3ea2c0b5	0.3178765
76	0xbdfd477f	-0.123671524
77	0x3b06be5e	0.0020560245
78	0xbdc92857	-0.09822147
79	0xbda6e1d7	-0.08148544
80	0xbd717d5c	-0.058957443
81	0xbf081bdd	-0.53167516
82	0x3da5db2a	0.08098443
83	0xbe303d19	-0.17210807
84	0xbe86af4e	-0.26305622
85	0xbd8fb1bb	-0.07016321
86	0x3d6d0c5a	0.057873107
87	0xbe5b77b4	-0.21432382
88	0x3e0300a6	0.12793216
89	0xbe6edea2	-0.23327115
90	0xbd8c3ea9	-0.06847889
91	0x3cd0c53c	0.025484674
92	0x3d668f02	0.056288727
93	0x3e559fdd	0.20861764
94	0xbe6b7bf4	-0.22996503
95	0x3e531877	0.20614801
96	0x3dbf1371	0.0932988
97	0x3d914e45	0.07095007
98	0x3b92a054	0.004474679
99	0x3cc8ef72	0.024528239
100	0x3ec28fbb	0.38000283
101	0xbe9111fd	-0.28334036
102	0xbdccf141	-0.10006953
103	0x3e4ee6f5	0.2020529
104	0xbecc5fa3	-0.39916715
105	0x3ebfaa93	0.37434825
106	0xbd08fec8	-0.033446103
107	0x3f05f902	0.5233308
108	0x3e0769b9	0.13223924
109	0xbe3a8f42	-0.18218711
110	0xbbcb1057	-0.006197016
111	0xbdd885eb	-0.10572418
112	0x3e85c938	0.2613008
113	0xbdc80e72	-0.0976838
114	0xbdec60d2	-0.115419045
115	0x3e197103	0.14984517
116	0x3cf3f710	0.029780895
117	0xbe396ade	-0.18107173
118	0x3e36d38a	0.17854133
119	0x3cf40245	0.029786238
120	0x3e7e4051	0.24829222
121	0xbe32b667	-0.17452393
122	0xbd92e169	-0.071719
123	0x3dee05c8	0.116221964
124	0xbddb3832	-0.10704078
125	0xbe403478	-0.18770015
126	0xbd0cb4c4	-0.03435208
127	0xbe962180	-0.29322433
128	0x3ceffae6	0.029294442
129	0x3d49f5d9	0.049306724
130	0xbcd77ced	-0.026304686
131	0xbe86fe68	-0.26365972
132	0xbd36b328	-0.04460445
133	0x3d1dcbf1	0.03852457
134	0x399d0174	0.00029946456
135	0xbea4529b	-0.32094273
136	0xbe3b5d00	-0.18297195
137	0x3ecd15a9	0.40055588
138	0x3cfe392e	0.031033125
139	0xbd1c0782	-0.038093098
140	0xbd6ed526	-0.058308743
141	0xbdde4d5c	-0.10854599
142	0x3d7c4d17	0.061596956
143	0xbd641a21	-0.05568898
144	0xbd56dfa9	-0.052459393
145	0x3e71c337	0.23609625
146	0xbce09235	-0.027413467
147	0xbe2fa33d	-0.17152114
148	0x3e8cf78a	0.27532607
149	0x3d494b22	0.049143918
150	0x3aa41988	0.0012519816
151	0x3e1cecec	0.15324754
152	0x3e089bf6	0.13340744
153	0xbdd537eb	-0.10411056
154	0xbd3dc85e	-0.046333663
155	0xbe8e1d3b	-0.27756676
156	0xbf250ee5	-0.6447585
157	0xbe19c443	-0.15016274
158	0xbe991867	-0.2990143
159	0xbd997799	-0.074935146
160	0xbe9d138c	-0.30678976
161	0x3e93044a	0.2871421
162	0x3bd10df5	0.0063798376
163	0x3d9c42da	0.076299384
164	0x3dff31af	0.12460648
165	0xbe3d3acc	-0.1847946
166	0xbe4381a4	-0.19092423
167	0xbdcafebd	-0.09911869
168	0xbf0edaba	-0.558025
169	0xbe050fe0	-0.12994337
170	0xbe165c97	-0.14683758
171	0xbe083081	-0.13299753
172	0xbd3c3a7a	-0.045954205
173	0xbdde707b	-0.10861298
174	0xbe6bf124	-0.23041207
175	0xbe37175d	-0.17880006
176	0xbdb9ed90	-0.090785146
177	0xbe7502f2	-0.23926905
178	0x3d427553	0.04747517
179	0xbda3b07f	-0.07992648
180	0x3f0b796a	0.5448214
181	0xbc944542	-0.018099431
182	0x3e924d86	0.2857477
183	0x3e93d5ee	0.28874153
184	0x3e983c63	0.2973357
185	0x3d5de724	0.05417551
186	0xbe393845	-0.18087871
187	0xbe888340	-0.26662636
188	0xbf0d289d	-0.55140096
189	0x3e960953	0.2930399
190	0x3e1580c7	0.14599906
191	0xbdb916b1	-0.09037531
192	0xbe0871bd	-0.13324638
193	0xbe80f5dd	-0.2518758
194	0x3e6e9bc0	0.23301601
195	0xbdba6b06	-0.09102444
196	0x3d81fa1f	0.06346535
197	0x3db7a0bb	0.08966204
198	0xbc820a1e	-0.015873965
199	0x3df3320d	0.11874781
200	0xbe363e3a	-0.17797175
201	0xbde9486a	-0.11390765
202	0x3e08e2fa	0.13367835
203	0x3e3735fb	0.17891686
204	0xbd850747	-0.06495529
205	0x3de364b7	0.11103194
206	0xbccd86c7	-0.02508868
207	0x3ed9f289	0.42567852
208	0x3e259952	0.16171768
209	0xbe320077	-0.1738299
210	0xbeb33da7	-0.35007975
211	0xbd39ad16	-0.045331083
212	0xbe230e61	-0.15923454
213	0xbd05038a	-0.03247408
214	0x3e925002	0.28576666
215	0x3da977f8	0.08274835
216	0x3dd4ca79	0.10390181
217	0xbeb3d436	-0.35122842
218	0x3e6167ba	0.22012225
219	0xbe09e76f	-0.13467191
220	0x3dba3796	0.090926334
221	0xbe955ccc	-0.2917236
222	0x3dc50b30	0.096212745
223	0x3d82b514	0.06382194
224	0x3debbd07	0.115106635
225	0x3de7d08c	0.11319074
226	0xbe6e7d69	-0.23290028
227	0xbbf39c7a	-0.007434425
228	0xbf14fbb5	-0.58196574
229	0x3cab6a96	0.020924848
230	0xbd3bac04	-0.045818344
231	0x3d4530a8	0.048142105
232	0x3eb3d7b4	0.35125506
233	0xbe7c13f7	-0.24616991
234	0x3d12ceb0	0.035841644
235	0xbd82a152	-0.06378426
236	0xbb209b20	-0.0024506524
237	0x3e247fc1	0.16064359
238	0x3e474ad3	0.19462137
239	0x3e83611a	0.2566002
240	0xbe15c6ca	-0.14626613
241	0x3e464af3	0.19364528
242	0xbc30cfc1	-0.01079172
243	0xbe9360a3	-0.28784665
244	0x3e112e32	0.14177778
245	0x3d876447	0.06610923
246	0xbe56e783	-0.20986752
247	0x3e08c0b5	0.13354762
248	0xbea9a2d3	-0.33132038
249	0x3e2228a5	0.15835817
250	0x3cdd6703	0.027026659
251	0x3e1123f9	0.14173879
252	0x3f1d1ad7	0.6136908
253	0x3de740ae	0.112916335
254	0x3d57d3d6	0.052692257
255	0xbe8a10f5	-0.26966062

ray_torchmodel._hidden_layers/_hidden_layers/1/_model/_model/0/Gemm.bias f4 [64]
0	0x3ced1480	0.02894044
1	0x3e340bf9	0.17582692
2	0x3e9ab41d	0.3021554
3	0xbebf840b	-0.37405428
4	0xbd9e0c55	-0.07717196
5	0xbe05bfed	-0.13061495
6	0x3e0da1a9	0.138312
7	0x3e02236f	0.1270883
8	0xbe4318ff	-0.19052504
9	0xbe388a96	-0.18021616
10	0xbd365639	-0.044515822
11	0xbd913dad	-0.07091842
12	0xbe080b9e	-0.13285682
13	0xbd16726f	-0.036730226
14	0x3d08a9d3	0.033365082
15	0xbd8b7187	-0.06808763
16	0xbd56602a	-0.052337803
17	0x3e795833	0.24350052
18	0xbcdb4246	-0.026765
19	0xbd949400	-0.07254791
20	0x3be8e8ce	0.0071078306
21	0x3e9fe899	0.31232145
22	0x3e07361a	0.13204232
23	0xbe0743f3	-0.13209514
24	0x3ea0086c	0.31256425
25	0x3ddf1d65	0.108942784
26	0x3d2de1d5	0.0424517
27	0xbe2c7de1	-0.16844894
28	0xbc42de45	-0.0118938135
29	0x3f117eeb	0.56834286
30	0xbc2e8506	-0.010651832
31	0x3e9fdf61	0.31225112
32	0x3dfbee75	0.123013414
33	0x3db128ff	0.086503975
34	0x3e339d36	0.1754044
35	0x3e4ded0e	0.2010996
36	0x3db99387	0.09061342
37	0xbcbd7fd6	-0.023132246
38	0x3df80dfa	0.12112041
39	0xbd97032f	-0.07373654
40	0xbf000e93	-0.5002224
41	0xbd09cb6e	-0.03364127
42	0x3d9af653	0.07566514
43	0xbd926bfd	-0.071495034
44	0x3e5bd684	0.2146855
45	0xbd9bd86e	-0.0760964
46	0xbf53ef9b	-0.82787484
47	0xbe03473e	-0.12820145
48	0xbda1e450	-0.07904875
49	0x3dbe05ca	0.09278448
50	0xbdcde135	-0.100527205
51	0xbd7347f2	-0.059394784
52	0xbebb79ad	-0.3661627
53	0x3bae6609	0.005322222
54	0xbecca279	-0.39967707
55	0xbdfcfb9b	-0.123526774
56	0xbe2fcfd8	-0.1716913
57	0x3d8e2581	0.06940747
58	0xbef00f4c	-0.4688667
59	0xbe5a9ed5	-0.21349652
60	0x3d047eca	0.032347478
61	0xbe5f493a	-0.21805277
62	0x3d49b71d	0.049246896
63	0x3ebcf3fc	0.36904895

ray_torchmodel._logits/_model/_model/0/Gemm.weight f4 [3, 64]
0	0x3df0e9bd	0.11763332
1	0xbe20ffed	-0.15722628
2	0xbe18b2b1	-0.14911915
3	0x3d9c53f1	0.07633198
4	0x3e980095	0.29687944
5	0x3e0774e8	0.1322819
6	0x3d80cbcb	0.062888704
7	0xbe21e3b9	-0.15809526
8	0x3b93088f	0.0044871042
9	0x3e82f7a2	0.25579554
10	0x3b88092e	0.004151485
11	0xbe084309	-0.13306822
12	0x3e8942d8	0.2680881
13	0xbd963105	-0.073335685
14	0x3d9d6834	0.07685891
15	0x3e8a9e18	0.2707374
16	0x3da833d6	0.08213012
17	0x3ddc0647	0.10743385
18	0xbc6a548b	-0.014302383
19	0xbcaff65d	-0.02147978
20	0x3e2e7ca7	0.17039739
21	0xbe843ed7	-0.25829193
22	0x3dbf4837	0.09339946
23	0x3dc1c207	0.09460836
24	0xbe3c6c8b	-0.18400781
25	0x3ea33a5a	0.31880456
26	0x3e5f9b47	0.21836577
27	0xbe370915	-0.17874558
28	0xbde5729a	-0.11203499
29	0xbe1e917e	-0.15485188
30	0x3daf4cd0	0.08559573
31	0xbe30a577	-0.1725062
32	0xbe5466e9	-0.20742382
33	0x3d4efd0e	0.0505343
34	0xbe433535	-0.19063266
35	0x3e5d3210	0.21601129
36	0xbe91636f	-0.28396174
37	0x3dec2097	0.115296535
38	0x3dcc653f	0.09980249
39	0xbcb9bd9d	-0.022673422
40	0x3e2cb27d	0.16864963
41	0x3e129d4e	0.1431782
42	0x3cccfdfd	0.025023455
43	0xbc47408a	-0.012161383
44	0xbd36d8ad	-0.044640232
45	0xbe194f98	-0.14971769
46	0x3eb122b0	0.34596777
47	0xbe3bd853	-0.1834424
48	0x3ddbf25d	0.107395865
49	0xbe6b1b04	-0.22959524
50	0x3dde9550	0.10868323
51	0xbe874a10	-0.26423693
52	0x3e7735e4	0.24141651
53	0xbcca072a	-0.02466162
54	0x3eb75eef	0.35814616
55	0x3d43caab	0.0478007
56	0x3e73892f	0.237828
57	0xbca4f1f7	-0.02013491
58	0x3e356fbd	0.17718406
59	0xbcb9699d	-0.022633368
60	0xbd08d851	-0.03340942
61	0xbd5556d4	-0.05208476
62	0xbdb55176	-0.08853428
63	0xbe2b912b	-0.16754596
64	0x3d3192b4	0.043352798
65	0xbdb3574e	-0.087568864
66	0xbc5fbf59	-0.013656461
67	0x3d95c6fa	0.073133424
68	0xbdbf9c17	-0.09355944
69	0xbc90f396	-0.017694276
70	0x3dc76b2c	0.09737238
71	0x3e5c71fc	0.21527857
72	0x3cb66184	0.022263296
73	0xbe587042	-0.21136573
74	0x3ba3cb9b	0.004998637
75	0xbd7ebe56	-0.062193237
76	0xbe0d8513	-0.13820295
77	0xbb1cd49f	-0.0023930443
78	0x3c85c8a9	0.016331034
79	0xbd07e3f0	-0.033176363
80	0x3c874bfc	0.016515724
81	0xbd460645	-0.048345823
82	0xbd946ebe	-0.07247685
83	0x3daa77e4	0.083236486
84	0xbd0aa907	-0.033852603
85	0xbc9ee978	-0.019398436
86	0xbda70800	-0.08155823
87	0x3d0c0d90	0.03419262
88	0x3e2af346	0.16694364
89	0x3d7f5b0a	0.06234268
90	0xbdda4494	-0.106576115
91	0xbcaa990c	-0.020824932
92	0xbd21751c	-0.039418325
93	0x3b3acfef	0.0028505286
94	0x3d2d9cce	0.04238587
95	0x3e1eaddf	0.15496014
96	0x3dd08445	0.101814784
97	0xbd5c80c9	-0.053833757
98	0x3d546310	0.051852286
99	0x3cdbb740	0.026820779
100	0x3e2bce0a	0.16777816
101	0xbe3278ea	-0.17428938
102	0x3d566643	0.052343618
103	0x3e4c60de	0.19958827
104	0xba00bf10	-0.0004911283
105	0xbe255639	-0.16146173
106	0xbd26250b	-0.04056267
107	0xbd60c180	-0.054872036
108	0xbcd7dfc7	-0.026351823
109	0xbdb30684	-0.08741477
110	0xbd329c0f	-0.04360586
111	0x3de140db	0.10998698
112	0xbc796cef	-0.015223726
113	0x3deadbaf	0.114676826
114	0x3ddddd29	0.108331986
115	0x3e61ce13	0.22051267
116	0x3de21417	0.11038988
117	0xbd06b03f	-0.032882925
118	0x3dcfeab0	0.10152185
119	0x3cbda470	0.023149699
120	0xbc8f4aa9	-0.017491655
121	0x3dfb80dc	0.12280437
122	0xbcf6b2a8	-0.030114487
123	0x3e4222f1	0.18958642
124	0xbdab0875	-0.083512224
125	0x3d53591f	0.051598664
126	0xbc89f43d	-0.016840095
127	0xbc26f42d	-0.010190052
128	0xbe4b88d8	-0.1987642
129	0x3e974ab3	0.29549178
130	0x3e28a09b	0.16467516
131	0xbe24f82a	-0.16110292
132	0xbe6480ab	-0.22314708
133	0xbe27166b	-0.16317146
134	0xbe5d14eb	-0.21590011
135	0xbd66ce97	-0.056349363
136	0xbcf08d01	-0.02936411
137	0xbcb49f7c	-0.022048704
138	0xbc5e0760	-0.013551563
139	0x3e5f8d63	0.21831279
140	0xbe1af728	-0.15133345
141	0x3db01bd4	0.08599058
142	0xbddbe49a	-0.10736962
143	0xbe7a69d5	-0.24454434
144	0xbe033c78	-0.12816036
145	0xbd82e126	-0.063906
146	0x3de277b6	0.11057989
147	0xbdb27e52	-0.087155
148	0xbe17a9f9	-0.14810933
149	0x3e8bbcee	0.2729258
150	0xbc6092a1	-0.013706834
151	0xbe1fc9df	-0.15604351
152	0x3c1500ab	0.009094398
153	0xbedc279e	-0.42998976
154	0xbdcfcafc	-0.10146138
155	0x3e62325f	0.22089528
156	0x3e3bad5c	0.1832785
157	0x3e241cd4	0.16026622
158	0xbe1aec56	-0.15129218
159	0x3c762335	0.015023042
160	0x3dc658a1	0.09684873
161	0xbb21daf9	-0.0024697168
162	0x3e1c5a15	0.15268739
163	0xbe908457	-0.28225967
164	0x3ddcc3ee	0.10779558
165	0x3daaed0a	0.08345993
166	0xbe50d804	-0.20394903
167	0xbe6d9281	-0.23200418
168	0xbe36e649	-0.17861284
169	0x3d01e675	0.03171392
170	0x3c790617	0.015199206
171	0x3dccf121	0.10006929
172	0x3dbdd44e	0.092690095
173	0x3e791922	0.24325994
174	0xbea64c84	-0.32480252
175	0x3d914fd6	0.070953056
176	0xbdbc0b41	-0.09181834
177	0x3e02f7cc	0.1278984
178	0xbe7e9f4e	-0.24865457
179	0x3cf0b045	0.029380927
180	0xbebe0953	-0.3711649
181	0x3d73c194	0.059510782
182	0xbef8e8d7	-0.48615143
183	0xbdaea3c6	-0.08527331
184	0xbe8994a0	-0.26871204
185	0xbe1135b0	-0.14180636
186	0xbe145513	-0.14485578
187	0xbe5e65d7	-0.21718536
188	0x3e1cf987	0.15329562
189	0xbc208591	-0.00979747
190	0x3e01cd84	0.12676054
191	0x3e2dd9ea	0.16977659

ray_torchmodel._logits/_model/_model/0/Gemm.bias f4 [3]
0	0x3da6f069	0.08151323
1	0xbd3f088b	-0.046639007
2	0xbbaa40d8	-0.0051957183
