Unity/2Dtest/Assets/ML-Config/model_fixed2024.onnx (onnx, 20739 bytes, 6 tensors)

_hidden_layers.0._model.0.weight f4 [64, 4]
0	0xbf39b9ab	-0.7254893
1	0xbec661cd	-0.3874649
2	0xbf161d5f	-0.58638567
3	0xbe74c731	-0.2390411
4	0xbf3c060e	-0.7344674
5	0x3c98bc92	0.018644605
6	0x3f1da164	0.6157439
7	0xbed55a5d	-0.41670504
8	0xbe187d1b	-0.14891474
9	0xbe454bf2	-0.19267252
10	0xbf0147fa	-0.5050045
11	0x3f62e403	0.8862917
12	0xbe421711	-0.18954112
13	0x3f89cf30	1.0766354
14	0x3eab5175	0.33460584
15	0xbc53a0a7	-0.0129167205
16	0xbeca8022	-0.39550883
17	0x3f83e664	1.0304685
18	0x3ead18d1	0.33807996
19	0xbe8ef983	-0.27924737
20	0xbd0cf808	-0.03441623
21	0xbf09e5e5	-0.53866416
22	0xbc69ecda	-0.014277661
23	0x3f6eaeeb	0.93235654
24	0x3f66a1f3	0.90090865
25	0x3f07da5e	0.53067577
26	0x3d0fed56	0.03513845
27	0xbe8d39d7	-0.2758319
28	0xbe8bce2e	-0.2730574
29	0x3f8b569f	1.088581
30	0xbe48bd5e	-0.19603488
31	0xbed0a7f4	-0.40753138
32	0xbe5a845e	-0.21339557
33	0x3ef5d143	0.48011217
34	0x3f36ef0f	0.71458524
35	0xbf0a2dab	-0.53975934
36	0xbe87ac1f	-0.26498505
37	0xbeee3906	-0.4652788
38	0x3f504f59	0.81371075
39	0x3f07fc2a	0.53119147
40	0x3ea1eefe	0.3162765
41	0x3e9a3114	0.3011557
42	0xbee72b8c	-0.4515041
43	0xbf4640cf	-0.7744264
44	0xbf37bf80	-0.7177658
45	0x3f3923e8	0.72320414
46	0x3e8a708e	0.27038997
47	0x3df5d8bd	0.1200423
48	0xbee9a554	-0.45633948
49	0x3d3ff1f2	0.046861596
50	0x3f465c87	0.77484936
51	0xbee0c980	-0.43903732
52	0xbf315c75	-0.69281703
53	0x3d7f2235	0.06228848
54	0xbf01e45b	-0.5073907
55	0x3f039ffd	0.51416
56	0xbeb730b6	-0.3577935
57	0xbe7f0f72	-0.24908236
58	0x3f14937c	0.58037543
59	0xbf3a3fbc	-0.727535
60	0xbf7af721	-0.9803334
61	0xbe83a1af	-0.25709292
62	0x3bb3e42b	0.005489846
63	0x3e9d8360	0.30764294
64	0xbeb33b9d	-0.3500642
65	0xbe9305a1	-0.28715232
66	0x3f19d6df	0.6009349
67	0xbf3fa8bd	-0.7486685
68	0xbf877ee9	-1.0585605
69	0xbeb25b96	-0.348355
70	0x3daada5d	0.08342431
71	0xbe829db5	-0.25510946
72	0xbd66d005	-0.056350727
73	0xbf095f67	-0.536612
74	0x3ec41351	0.38295987
75	0xbf47e136	-0.7807802
76	0xbf47a3f0	-0.77984524
77	0x3dfef3c2	0.12448837
78	0xbf08d6fa	-0.5345303
79	0xbe83de7d	-0.25755683
80	0xbd7f1650	-0.06227714
81	0xbf3c60a3	-0.73584956
82	0xbf2091ff	-0.6272277
83	0x3eda9f59	0.42699698
84	0x3e63a741	0.22231771
85	0xbf4c21e7	-0.7973923
86	0xbe8b96de	-0.2726354
87	0xbf224dfe	-0.63400257
88	0x3d89bbfc	0.06725308
89	0x3f21f965	0.6327117
90	0xbf4abfce	-0.7919892
91	0xbeaa17a0	-0.3322115
92	0x3f26aa9f	0.651041
93	0x3ebeae73	0.3724247
94	0x3ed37cb6	0.41306084
95	0x3f1a3e30	0.6025114
96	0x3f3570c2	0.7087518
97	0x3f08e113	0.53468436
98	0xbed3b40f	-0.4134831
99	0x3e10e874	0.14151174
100	0xbf19c32f	-0.6006345
101	0xbf0b9ece	-0.5453919
102	0xbe8899d0	-0.2667985
103	0x3f229d7c	0.6352155
104	0xbea92a24	-0.33039963
105	0xbeac6b0d	-0.33675423
106	0x3f1822d2	0.5942813
107	0xbf3d189d	-0.7386568
108	0xbdcf867d	-0.101330735
109	0x3f1dfb5e	0.6171168
110	0x3f3ecb76	0.74529207
111	0xbee94faa	-0.4556859
112	0xbe1ab514	-0.15108138
113	0x3db0f150	0.08639777
114	0xbf6a220d	-0.9145821
115	0x3f0598df	0.5218639
116	0x3f0c5440	0.54816055
117	0x3f60892c	0.8770931
118	0xbee57710	-0.448174
119	0x3e5368e8	0.20645487
120	0x3df7c943	0.120989345
121	0xbef85edf	-0.4850988
122	0xbc24a0d6	-0.010048112
123	0x3f81e50d	1.0148026
124	0xbf9b7303	-1.2144474
125	0xbe3a9737	-0.18221746
126	0x3df3721c	0.11886999
127	0x3d4f5e78	0.0506272
128	0xbe0047f7	-0.12527452
129	0xbf18304c	-0.59448695
130	0xbf56bbee	-0.8388051
131	0xbc30b5aa	-0.0107855
132	0x3e1ba52d	0.15199728
133	0x3e89439c	0.26809394
134	0x3f1fa4fc	0.6236112
135	0xbf51bbf7	-0.81927437
136	0x3f0d630a	0.55229247
137	0x3c612086	0.013740664
138	0x3e2ba162	0.16760781
139	0xbf5f335d	-0.8718775
140	0x3e710539	0.23537149
141	0xbf33c59f	-0.7022342
142	0xbf3b8f82	-0.7326585
143	0x3da7dcb7	0.08196395
144	0xbf3e56cc	-0.7435119
145	0xbdf6932f	-0.12039792
146	0x3f20338a	0.6257864
147	0xbe649d3f	-0.2232561
148	0xbe754887	-0.23953448
149	0x3eee0ffa	0.46496564
150	0xbee4bf63	-0.44677266
151	0xbf54cb9c	-0.83123183
152	0xbe2c1221	-0.1680379
153	0xbf705bcb	-0.93890065
154	0xbd067ca0	-0.032833695
155	0x3e37b03d	0.17938323
156	0x3e354507	0.17702113
157	0xbf9d0ebb	-1.227012
158	0x3e80ede3	0.25181493
159	0x3d966127	0.07342749
160	0x3f5f9dc8	0.8735013
161	0xbf15a434	-0.5845368
162	0xbe949643	-0.2902089
163	0x3e7aac9f	0.24479912
164	0xbf4d056a	-0.80086386
165	0x3e8d9a55	0.27656808
166	0xbe9df133	-0.30848083
167	0x3f0e9ac9	0.55704933
168	0xbe82f7bb	-0.25579628
169	0xbe81e1f5	-0.25367704
170	0xbe2cfc56	-0.16893134
171	0x3f88d6e9	1.0690585
172	0x3f313385	0.6921924
173	0xbe3ff327	-0.18745099
174	0x3e1979f1	0.14987923
175	0xbf2b4c2d	-0.6691311
176	0x3ee8ad99	0.45444945
177	0xbe2c7c38	-0.1684426
178	0xbf02b79d	-0.5106142
179	0xbf482ca0	-0.7819309
180	0x3f2107f9	0.6290279
181	0x3f2cabb4	0.674495
182	0xbe9d6c2d	-0.30746594
183	0x3e783efd	0.24242778
184	0xbe343e58	-0.17601907
185	0x3f79f3a7	0.9763741
186	0xbe167a00	-0.14694977
187	0xbeb0ce2c	-0.34532297
188	0x3c6f6b3b	0.014612968
189	0xbdb0083d	-0.08595321
190	0xbf8f513d	-1.1196667
191	0xbea99b7a	-0.33126432
192	0x3ef0f101	0.4705887
193	0x3ec1207f	0.37720105
194	0x3daa3eda	0.08312769
195	0x3f4e11bb	0.80495805
196	0x3f0b7201	0.5447083
197	0xbd66ba88	-0.056330234
198	0x3eadc2b8	0.3393762
199	0x3f42e377	0.76128334
200	0xbe7c9070	-0.24664474
201	0x3f6e6093	0.9311611
202	0xbc9833fb	-0.018579474
203	0x3ed6a63d	0.41923705
204	0xbd5d5ac6	-0.054041646
205	0xbf0215c2	-0.5081445
206	0xbf334a12	-0.700349
207	0xbef8e39e	-0.48611158
208	0xbd83432e	-0.06409298
209	0xbee05023	-0.4381114
210	0x3f23be8c	0.63962626
211	0xbf194086	-0.5986408
212	0xbe841f03	-0.2580491
213	0x3f0fc30e	0.56157005
214	0xbed5d6ee	-0.4176554
215	0xbf4560f5	-0.7710107
216	0x3cb5aba3	0.02217657
217	0xbe4edfa4	-0.202025
218	0xbf1f1a68	-0.6214967
219	0xbf498e98	-0.78733206
220	0xbe2b7c5c	-0.16746658
221	0xbcec074f	-0.028812079
222	0x3fa7e9f0	1.3118267
223	0x3de24794	0.11048809
224	0x3e99a967	0.30012056
225	0xbe2f4bfd	-0.17118831
226	0x3f82c213	1.0215477
227	0xbdf48507	-0.119394355
228	0xbee15b26	-0.44014853
229	0x3f675e8e	0.90378654
230	0x3ec6b2d1	0.388083
231	0xbdd165dd	-0.10224507
232	0xbf182e44	-0.59445596
233	0x3af95c13	0.0019024633
234	0xbe59d0f8	-0.21271122
235	0x3f5ea12d	0.86964685
236	0x3f2f88c6	0.68568075
237	0xbf1a9183	-0.60378283
238	0x3e1d35c6	0.15352544
239	0x3e7a9d8d	0.24474163
240	0xbf147eab	-0.5800578
241	0x3f5b7e4e	0.857396
242	0xbda5d884	-0.08097938
243	0x3e83a082	0.25708395
244	0xbf132c35	-0.5748933
245	0xbe7bf4ba	-0.24605075
246	0x3cc9df46	0.024642598
247	0x3f691314	0.91044736
248	0xbf5d855a	-0.86531603
249	0x3e232d07	0.15935145
250	0x3efdfe3c	0.49608028
251	0x3e6ff1e5	0.23432119
252	0xbe92472d	-0.28569928
253	0xbde6caf3	-0.11269178
254	0xbeab17a0	-0.33416462
255	0xbf55aba0	-0.83465004

_hidden_layers.0._model.0.bias f4 [64]
0	0x3ec96e9d	0.39342204
1	0x3dcf0eb0	0.10110223
2	0x3d6644db	0.05621801
3	0xbe54e066	-0.20788726
4	0xbb3708ff	-0.0027928946
5	0xbcfa2ab5	-0.030537942
6	0xbe90eb04	-0.28304303
7	0xbe9a225c	-0.3010434
8	0xbe969f13	-0.2941824
9	0xbb820ac3	-0.003968568
10	0xbe8c8153	-0.27442417
11	0x3c1c537b	0.009541388
12	0xbe6c264d	-0.23061486
13	0xbdae4f86	-0.08511262
14	0x3e1b81ef	0.15186284
15	0xbd027156	-0.031846367
16	0x3e83ce96	0.2574355
17	0xbe57b8db	-0.2106661
18	0x3c781d65	0.015143727
19	0x3d244743	0.040107023
20	0xbe04ef69	-0.12981953
21	0xbd234d68	-0.039868742
22	0x3d283946	0.041070245
23	0xbd5332d3	-0.05156214
24	0x3cce2b6f	0.025167195
25	0x3de7ea40	0.113239765
26	0x3e75c2f1	0.24000145
27	0xbcdc8d22	-0.026922766
28	0xbdfe81eb	-0.12427124
29	0x3c6167b6	0.013757637
30	0x3db6be0a	0.08922966
31	0xbe73b942	-0.23801139
32	0x3dbc2612	0.09186949
33	0x3d942135	0.07232896
34	0xbdcd5e6a	-0.10027774
35	0xbdcb768a	-0.09934719
36	0xbdacfca7	-0.08446627
37	0x3e4017a0	0.18759012
38	0x3de05111	0.10952962
39	0x3e002ecb	0.1251785
40	0x3db51535	0.088419355
41	0x3dbf054d	0.09327183
42	0xbd96766c	-0.07346806
43	0x3e9d0f9f	0.3067598
44	0x3e493cc2	0.19652084
45	0x3de7a055	0.11309878
46	0xbe1b52e4	-0.15168339
47	0x3dc4feef	0.09618937
48	0xbdd3fd45	-0.10351042
49	0xbdddb59c	-0.10825655
50	0xbd78fb57	-0.06078657
51	0xbded8914	-0.11598411
52	0x3ebba9d0	0.36652994
53	0x3d65e768	0.05612889
54	0xbe85e07a	-0.26147825
55	0xbead5c1b	-0.33859333
56	0xbea565f4	-0.32304347
57	0xbe7c4612	-0.24636105
58	0x3ca57b73	0.020200467
59	0xbcfab364	-0.030603118
60	0xbe98289c	-0.29718482
61	0xbad82f79	-0.001649364
62	0x3bfff986	0.007811728
63	0x3d8ae099	0.0678112

_hidden_layers.1._model.0.weight f4 [64, 64]
0	0xbd1ac4a7	-0.0377852
1	0x3e194b96	0.1497024
2	0xbe2e87d2	-0.17043999
3	0xbe872214	-0.26393187
4	0xbd3b9783	-0.04579879
5	0xbe68a25b	-0.22718184
6	0x3db1c0cc	0.08679351
7	0x3e0c8925	0.13724191
8	0x3dbe7694	0.09299961
9	0xbd9b45f6	-0.07581703
10	0x3dcb84b5	0.09937421
11	0xbe371da9	-0.17882408
12	0xbd137980	-0.036004543
13	0x3a2081a2	0.00061228324
14	0x3dab44e3	0.083627485
15	0xbd9375f4	-0.07200232
16	0x3d07bb7e	0.03313779
17	0xbd77faab	-0.06054179
18	0x3e70f930	0.23532557
19	0x3e259ff8	0.16174304
20	0x3dd41c7d	0.10356996
21	0xbe9068c9	-0.28204945
22	0x3e31db7b	0.17368881
23	0x3db47b8e	0.08812629
24	0x3e9104a4	0.28323853
25	0x3e8e60a9	0.2780812
26	0x3cd5414d	0.026032114
27	0xbe2db8a7	-0.1696497
28	0xbb1f5e01	-0.0024317505
29	0xbdfe058e	-0.12403403
30	0xbee37ad0	-0.44429636
31	0xba7ca07c	-0.0009636951
32	0xbcd7785d	-0.02630251
33	0x3da84c2b	0.08217653
34	0xbd9adfe0	-0.07562232
35	0xbe4cd6fa	-0.20003882
36	0x3d9fd005	0.078033485
37	0x3d99b4e4	0.07505205
38	0x3e12b02a	0.14325014
39	0xbe986063	-0.29761037
40	0xbdfb1f4c	-0.12261829
41	0xbe3daa71	-0.1852205
42	0xbe07048b	-0.13185327
43	0xbe0dc3d8	-0.1384424
44	0xbdd2d63b	-0.102947675
45	0x3e272585	0.16322906
46	0x3d0e4162	0.034730323
47	0x3ec5c683	0.38628015
48	0x3ca6bde7	0.020354224
49	0x3e210ae9	0.15726818
50	0x3e9efdff	0.3105316
51	0xbe439fd3	-0.19103937
52	0x3de57ff6	0.11206047
53	0xbd6a8c7b	-0.05726288
54	0x3e00363d	0.1252069
55	0xbe6576c6	-0.2240859
56	0xbe2d1c43	-0.16905312
57	0x3dc26a49	0.094929285
58	0xbd564361	-0.05231035
59	0xbea68f41	-0.3253117
60	0x3d53e8e1	0.051735763
61	0x3c98af5f	0.018638311
62	0xbc7c32b6	-0.01539295
63	0x3e333437	0.17500387
64	0x3e371d4c	0.1788227
65	0xbdf3cb95	-0.119040646
66	0x3e24dffa	0.16101065
67	0xbd45ad87	-0.04826119
68	0xbe22d40e	-0.15901205
69	0xbdac4e2c	-0.084133476
70	0xbe221ab8	-0.15830505
71	0xbdadf3dc	-0.08493778
72	0xbe2cea40	-0.16886234
73	0x3eb4341b	0.35196003
74	0xbeaf9937	-0.3429658
75	0xbe9bcd98	-0.30430293
76	0xbdc99ba7	-0.098441415
77	0xbdf13bef	-0.117790096
78	0xbe2cb981	-0.16867639
79	0x3bfbefb3	0.0076884865
80	0x3c2df69e	0.01061788
81	0xbd88b9b5	-0.06676046
82	0x3d83f5d8	0.06443375
83	0xbe0dcab6	-0.1384686
84	0xbe07279b	-0.13198702
85	0xbd65f8f4	-0.056145623
86	0xbce8c588	-0.028414503
87	0xbcdb6a1d	-0.026783997
88	0x3e53d80a	0.20687881
89	0x3dac81a7	0.08423167
90	0xbe1e762c	-0.15474766
91	0xbc9c61be	-0.019089576
92	0xbc842ea6	-0.016135525
93	0x3dc12010	0.094299436
94	0x3df97d44	0.12182096
95	0x3cfc6949	0.030811923
96	0xbd1536d0	-0.036429226
97	0xbe8ee120	-0.27906132
98	0xbe175ef0	-0.1478231
99	0xbde8f108	-0.11374098
100	0xbe13f192	-0.1444762
101	0x3dc47c19	0.09593982
102	0x3e64cb0e	0.22343084
103	0x3e392de7	0.18083917
104	0xbe338766	-0.17532119
105	0x3d8d3694	0.068951756
106	0xbe10dd9a	-0.14147034
107	0xbe7c064d	-0.24611779
108	0xbe69bb1e	-0.22825286
109	0x3e11952b	0.1421706
110	0x3e730f7c	0.23736376
111	0xbe15cff7	-0.14630114
112	0x3c514ae0	0.012774199
113	0xbdc56a12	-0.09639372
114	0x3e3bd799	0.18343963
115	0xbd431606	-0.047628425
116	0x3e66e4b7	0.22548185
117	0x3e181ac5	0.14853962
118	0xbe526099	-0.20544662
119	0x3eabc985	0.33552185
120	0xbe199a23	-0.15000205
121	0xbe6672a0	-0.22504663
122	0x3dc9166f	0.09818732
123	0xbbed9425	-0.007250326
124	0x3dedff4b	0.11620959
125	0xbdecc6dc	-0.11561367
126	0xbd1ae242	-0.037813433
127	0x3e6292ab	0.22126262
128	0xbd84daef	-0.06487071
129	0x3d5d275e	0.05399262
130	0xbc58cb63	-0.013232085
131	0xbe8b197c	-0.2716788
132	0xbe9ac572	-0.30228764
133	0x3f060f9e	0.5236758
134	0xbe047963	-0.1293693
135	0x3daa6224	0.083195
136	0xbecdfe01	-0.40232852
137	0xbdfb7720	-0.12278581
138	0x3d20aa9d	0.03922521
139	0x3e1ccb6e	0.15311977
140	0xbe0493a3	-0.12946944
141	0x3eb480c2	0.35254484
142	0x3e9007b1	0.28130868
143	0x3e7425d1	0.23842551
144	0x3e5100b3	0.20410423
145	0xbe14e382	-0.14539912
146	0x3e14c7e2	0.14529374
147	0x3d86b45d	0.0657737
148	0x3e8fa466	0.28055114
149	0x3e272df7	0.16326128
150	0x3d4c4469	0.04986993
151	0xbd72225f	-0.05911481
152	0x3e86b85a	0.26312524
153	0x3e74b345	0.23896511
154	0x3e471046	0.19439802
155	0xbece3608	-0.40275598
156	0xbd19f8cb	-0.037590783
157	0x3e51d3d4	0.20490962
158	0xbd94757a	-0.072489694
159	0x3bc05a5d	0.005870147
160	0x3e8d1b5d	0.2755994
161	0xbd9b111c	-0.07571623
162	0x3d2a435e	0.041568153
163	0xbe13f22f	-0.14447854
164	0x3cbcfac9	0.023068802
165	0x3de681f5	0.11255256
166	0x3cbdc7e0	0.023166597
167	0xbdaac473	-0.08338251
168	0xbdc0ff5a	-0.094237044
169	0x3e439649	0.19100298
170	0xbb17c4a5	-0.002315798
171	0x3d97b6f5	0.07407943
172	0xbb782e27	-0.0037869306
173	0x3e36cbc1	0.17851163
174	0x3d6fc49c	0.05853711
175	0x3dda8b79	0.106711335
176	0x3cd805af	0.026369898
177	0xbd05b945	-0.03264739
178	0xbdc09e47	-0.09405189
179	0xbcdd41b0	-0.027008861
180	0x3cc0d9f2	0.023541424
181	0xbdb83803	-0.089950584
182	0xbde3744c	-0.11106166
183	0xbeab748a	-0.3348735
184	0x3e2079ae	0.15671417
185	0xbcb25717	-0.021770043
186	0xbdf06b98	-0.11739272
187	0x3d4cc277	0.049990144
188	0x3d911911	0.07084859
189	0xbe051a09	-0.12998213
190	0x3d43532b	0.047686737
191	0x3e729179	0.23688306
192	0x3e6f7e3b	0.23387997
193	0xbe5a39c1	-0.21311094
194	0x3cb5bc4c	0.022184514
195	0x3c34218f	0.010994329
196	0xbdd3f88d	-0.10350142
197	0xbde66933	-0.11250534
198	0xbe387062	-0.1801162
199	0x3ee604d6	0.44925565
200	0xbe1a4312	-0.15064648
201	0xbd3c528d	-0.045977164
202	0xbd1f1c33	-0.038845252
203	0xbd093764	-0.03350009
204	0xbe069991	-0.13144518
205	0xbe335f09	-0.17516722
206	0x3df53e05	0.1197472
207	0x3e0f7707	0.14010249
208	0x3c9db081	0.019249203
209	0xbe07041f	-0.13185166
210	0xbb3c72dc	-0.0028754985
211	0xbdea1a27	-0.114307694
212	0x3e48f7fb	0.19625847
213	0xbdf28008	-0.11840826
214	0x3e53447b	0.20631592
215	0x3e1ed7fd	0.1551208
216	0x3df1c1fa	0.11804576
217	0x3e832df0	0.25620985
218	0x3d3155a2	0.043294556
219	0x3e011ecc	0.12609404
220	0xbe811f92	-0.252194
221	0xbce5a441	-0.028032424
222	0xbe270789	-0.16311468
223	0xbe653f0e	-0.22387335
224	0x3ea39c7d	0.3195533
225	0x3e0966c6	0.13418111
226	0x3e210412	0.15724209
227	0xbe177254	-0.14789706
228	0xbe849e73	-0.25902137
229	0x3e713d9a	0.23558655
230	0xbd22a642	-0.039709337
231	0xbee4ec13	-0.4471136
232	0x3cea25f6	0.028582554
233	0xbe0a5e9e	-0.13512656
234	0xbeb26129	-0.34839752
235	0xbd740eba	-0.059584357
236	0xbe3c90af	-0.18414567
237	0x3cf80967	0.03027792
238	0x3e8ec850	0.278872
239	0x3dd0394e	0.1016718
240	0x3e6d93d3	0.23200922
241	0x3d1db002	0.038497932
242	0x3e2df3d2	0.16987541
243	0xbe09338d	-0.13398571
244	0x3e89f04c	0.26941144
245	0xbe0f9d89	-0.14024939
246	0xbdf63bf7	-0.12023156
247	0xbecd4224	-0.40089524
248	0x3d505664	0.05086364
249	0xbd191719	-0.037375543
250	0xbdc06157	-0.09393566
251	0xbd7c445a	-0.061588623
252	0x3df29671	0.11845101
253	0xbeaaeacb	-0.33382258
254	0xbe1e6ba0	-0.15470743
255	0xbd274cd6	-0.04084476

_hidden_layers.1._model.0.bias f4 [64]
0	0xbd88a7d5	-0.066726364
1	0xbd1add70	-0.037808836
2	0x3b57c369	0.003292287
3	0x3db6b915	0.0892202
4	0xbe2450bb	-0.16046421
5	0xbe021ad6	-0.1270555
6	0xbe2c3a53	-0.16819124
7	0x3dfcab06	0.12337308
8	0x3e816f01	0.25280002
9	0xbdc7e5d9	-0.09760637
10	0xbd32c5cb	-0.04364566
11	0x3e2838f6	0.16427979
12	0x3c30152d	0.010747236
13	0x3e77f6e6	0.24215278
14	0xbe8ec175	-0.2788197
15	0xbe301d99	-0.1719879
16	0x3c2320c6	0.009956544
17	0xbe786b50	-0.24259686
18	0xbd9d8bdc	-0.07692692
19	0xbd152aaa	-0.03641764
20	0x3e757d3b	0.23973553
21	0x3dbb0d4e	0.09133397
22	0x3d60fc1b	0.054927927
23	0xbe35b3a8	-0.17744315
24	0xbd35c67a	-0.044378735
25	0x3e810814	0.25201476
26	0xbdccb934	-0.09996262
27	0x3d8128d8	0.063066185
28	0x3e15dffb	0.14636223
29	0x3c87b0ca	0.016563792
30	0x3e35d820	0.17758226
31	0x3da201f9	0.079105325
32	0x3e019212	0.12653378
33	0x3e733fad	0.23754759
34	0xbe2f2f70	-0.1710794
35	0x3d91d96a	0.071215466
36	0x3d8933a1	0.066993006
37	0xbe6dca34	-0.23221666
38	0x3d9461d7	0.07245224
39	0x3e02ebb5	0.12785228
40	0xbda7dc41	-0.08196307
41	0xbd867934	-0.065660864
42	0x3dd183be	0.10230206
43	0x3df0f0d6	0.11764686
44	0x3d28422b	0.041078728
45	0x3ca7d90c	0.020489238
46	0x3e58855a	0.2114462
47	0xbd97f38a	-0.07419498
48	0xbe8dd11c	-0.276986
49	0x3d1a60bc	0.03768991
50	0xbe134e24	-0.14385277
51	0x3df2d031	0.118561156
52	0xbc52d837	-0.012868932
53	0xbe426cd3	-0.18986826
54	0x3e39ac37	0.18132101
55	0x3e0b02b3	0.13575248
56	0x3cdb9c76	0.026808005
57	0xbded03d2	-0.11572994
58	0x3d2789cf	0.04090291
59	0xbe6c8a69	-0.23099674
60	0xbdd64870	-0.10463035
61	0xbcd74961	-0.026280107
62	0xbe0e5e59	-0.13903178
63	0x3e7d11e3	0.24713854

_logits._model.0.weight f4 [3, 64]
0	0x3d544bf1	0.051830236
1	0x3c577a7c	0.013151761
2	0x3e24a45a	0.1607832
3	0x3e189859	0.14901866
4	0x3d8349fc	0.06410596
5	0xbdef8c20	-0.116966486
6	0xbe2d2b88	-0.16911137
7	0xbe2a3ef2	-0.16625574
8	0xbd679a1a	-0.056543447
9	0x3e5013a4	0.20319992
10	0x3d867d81	0.06566907
11	0x3dc8e1fa	0.098087266
12	0x3e628b13	0.22123365
13	0xbdd3e980	-0.10347271
14	0x3d07c50a	0.033146895
15	0xbe2f33b7	-0.17109571
16	0xbe3c2341	-0.18372823
17	0x3cbeeaab	0.023305258
18	0x3d00b22d	0.03141992
19	0xbdc021b3	-0.093814276
20	0xbdbf737c	-0.09348199
21	0x3e2af28f	0.16694091
22	0xbce3f828	-0.027828291
23	0xbdfc649f	-0.123238795
24	0x3d848d28	0.06472236
25	0x3bf18455	0.0073705115
26	0xbd7aff4b	-0.061278623
27	0xb9a9d011	-0.00032389213
28	0x3e1e9d0e	0.15489599
29	0xbe39e598	-0.1815399
30	0x3e1766b4	0.14785272
31	0xbdae61cc	-0.08514747
32	0xbdb82471	-0.08991326
33	0xbd837318	-0.06418437
34	0xbe0685e5	-0.13137014
35	0x3dcc26b0	0.099683166
36	0x3e349d78	0.17638195
37	0x3d2af6d5	0.041739304
38	0x3e6a9abe	0.22910592
39	0x3e0f9783	0.14022641
40	0x3cb43e98	0.022002503
41	0x3df6143d	0.12015579
42	0xbc476582	-0.012170197
43	0xbe70ace3	-0.23503451
44	0x3d257262	0.040392287
45	0xbcf3cc89	-0.029760616
46	0xbcbd5360	-0.023111045
47	0xbe3230ff	-0.17401503
48	0xbe30e2f4	-0.17274076
49	0xbe2d1b97	-0.16905056
50	0xbdf2ab1f	-0.11849045
51	0xbe297922	-0.16550115
52	0x3e02c73c	0.12771314
53	0xbe28a510	-0.16469216
54	0xbc616728	-0.0137575045
55	0x3e3c3c30	0.18382335
56	0x3d53e1a0	0.051728845
57	0xbe6ba057	-0.23010384
58	0x3d900900	0.070329666
59	0xbe2787d9	-0.16360416
60	0x3b80c5b5	0.0039298185
61	0xbcdd28a8	-0.026996925
62	0x3d1825aa	0.037145294
63	0x3e009eab	0.12560527
64	0x3d480861	0.048836116
65	0x3d0328d2	0.03202135
66	0xbd72d597	-0.059285726
67	0x3cb2af73	0.021812176
68	0x3d4ffd98	0.050778955
69	0x3dd3ec9a	0.103478625
70	0x3c41be04	0.011825088
71	0xbcee7a53	-0.029111063
72	0xbd7bf023	-0.06150831
73	0xbcc87a02	-0.02447224
74	0x3b4675b6	0.0030282564
75	0xbe2bf12e	-0.16791221
76	0xbcf0e176	-0.029404383
77	0xbd067edf	-0.032835837
78	0x3d191be1	0.037380103
79	0x3c31a086	0.010841494
80	0x3d1fe745	0.039038915
81	0x3cab39fa	0.020901669
82	0x3d04358e	0.032277636
83	0xbbd5b37c	-0.0065216403
84	0xbd900790	-0.070326924
85	0xbe30d862	-0.17270043
86	0xbbc182eb	-0.005905499
87	0xbc757efb	-0.014983888
88	0x3d92b51d	0.07163451
89	0xbdd3c453	-0.1034018
90	0xbc9e6442	-0.019334916
91	0xbb5c76e0	-0.003364019
92	0xbd502cd4	-0.050824
93	0x3d23c90b	0.03998665
94	0xbb4c8277	-0.0031205693
95	0xbd05d846	-0.032676958
96	0xbc528fa4	-0.012851629
97	0xbd7387ca	-0.05945567
98	0x3d4b33fb	0.04961012
99	0xbdaac932	-0.08339156
100	0xbd7817af	-0.06056946
101	0x3c879503	0.016550547
102	0xbe533f70	-0.20629668
103	0xbdf66a67	-0.120320134
104	0x3d204d6c	0.039136335
105	0xbd1decab	-0.038555782
106	0xbca2a254	-0.019852795
107	0x3dae09bb	0.0849795
108	0xbd5135c2	-0.051076658
109	0xbd109ea3	-0.035307538
110	0xbc90451b	-0.017611077
111	0x3d83c96b	0.06434902
112	0x3d442ef5	0.047896344
113	0xb9a3fad0	-0.00031276653
114	0x3ddf65ed	0.10908113
115	0xbc94d73c	-0.018169038
116	0x3d26b6af	0.040701564
117	0x3dc01dc3	0.093806766
118	0xbc14c87d	-0.009081003
119	0xbe36e62e	-0.17861244
120	0xbd2a5adf	-0.041590568
121	0x3daae42f	0.08344304
122	0xbd437938	-0.047723025
123	0x3e31d699	0.17367019
124	0x3c0df773	0.0086649535
125	0xbc5765ff	-0.013146876
126	0x3cf76d3b	0.030203452
127	0xbe0faae8	-0.1403004
128	0xbdfb0a1f	-0.1225779
129	0xbd34b429	-0.044117127
130	0xbe0231d9	-0.12714328
131	0xbe65f563	-0.22456889
132	0xbe1d1e46	-0.1534358
133	0xbc4c8b0d	-0.012484324
134	0x3e4a3ca8	0.19749701
135	0x3e93049b	0.2871445
136	0x3e058d92	0.13042286
137	0xbe80a6e0	-0.25127316
138	0xbdbcc440	-0.09217119
139	0x3dcda0d9	0.10040445
140	0xbe895960	-0.26826
141	0x3e3282ee	0.17432758
142	0xbdba9d3f	-0.091120236
143	0x3e3d8d81	0.1851101
144	0x3e66d1e4	0.22541004
145	0xbd54d7ff	-0.051963802
146	0xbd965b4f	-0.073416345
147	0x3e110cff	0.14165114
148	0x3e4f8d71	0.202688
149	0x3d07c2cb	0.033144753
150	0x3d303c50	0.04302627
151	0x3e1bfcb9	0.15233125
152	0xbe3767a8	-0.17910635
153	0x3e297cd8	0.1655153
154	0x3ddaf40b	0.10691079
155	0x3b3833fd	0.002810716
156	0xbe241482	-0.16023448
157	0x3e4e391a	0.2013897
158	0xbe4acb15	-0.19804032
159	0x3e17023d	0.14746948
160	0x3e17c8ca	0.14822689
161	0x3e2ba905	0.16763695
162	0x3d99672a	0.0749038
163	0x3c10661f	0.00881341
164	0xbe1e431e	-0.1545529
165	0xbd9491ba	-0.07254358
166	0x3c63188c	0.013860833
167	0xbd63328d	-0.05546813
168	0xbd87a42c	-0.0662311
169	0xbdecbbef	-0.11559283
170	0x3d2cd17a	0.04219196
171	0x3e624e61	0.22100212
172	0x3cadc182	0.021210436
173	0x3d96a51d	0.073557116
174	0x3d027235	0.031847198
175	0x3e056e2f	0.13030313
176	0x3e16ff99	0.1474594
177	0x3e6ab2f9	0.22919835
178	0xbbcd5cce	-0.0062671667
179	0x3e7c14f5	0.2461737
180	0xbe649526	-0.2232252
181	0x3d980363	0.07422521
182	0x3cabe5d5	0.020983616
183	0xbc0ffd4c	-0.008788418
184	0xbbb29c6d	-0.0054507763
185	0x3e3b356c	0.18282098
186	0xbd7ad0a1	-0.06123412
187	0xbcbaf7f2	-0.022823308
188	0xbc86e66d	-0.016467297
189	0x3d3f7027	0.046737816
190	0xbda1d782	-0.07902433
191	0x3d7509be	0.059823744

_logits._model.0.bias f4 [3]
0	0x3d6ef25b	0.058336597
1	0xbe0aa8c5	-0.13540943
2	0x3e0361b2	0.12830237
