Unity/2Dtest/Assets/ML-Config/Sphere-30002.onnx (onnx, 7256 bytes, 6 tensors)

network_body._body_endoder.seq_layers.0.weight f4 [20, 4]
00000000: 211e 263e fa14 5bbd 55a8 1fbf 7ced 293f
00000010: bd42 243f 4e75 0cbf d9cf b63e c5d4 5c3e
00000020: f56d 8dbf e5ca 27be a712 0fbe 8d2d 86bf
00000030: de57 61be c8ca 28bf aa7d 12bf 3efd ea3d
00000040: eff4 c43d 496d e3bc 45bd 33bd 302d f2be
00000050: d8f2 2bbf 847c e6bd c99a 6f3e aa87 0f3f
00000060: 79f0 35be 4736 25bf d521 fc3d e234 bf3e
00000070: 7e01 7b3d 6eb8 c7be 48fd e3be 1fbf 7cbd
00000080: 4d19 80be 2974 c9bf e86e ae3e d3c6 b83e
00000090: f5c6 ac3e 5378 41be fe77 42be ebe6 893e
000000a0: b0a5 b1be 442d 843e 539f 4dbf 3260 90be
000000b0: 66cd 1b3d 21e9 1cbe 35f9 0ebe 8d4b 513f
000000c0: b05f 1d3f 6955 5cbf 35ec d8bc f6e5 60be
000000d0: 6a94 053d d630 0d3f 8229 463d 22f2 05bf
000000e0: 08a7 88be dc5b 78be 1038 9b3e 2b06 7fbe
000000f0: 1fa2 c7bc b2b7 863d 4bf7 8dbe 70af b6bd
00000100: caaf c93e a449 08bf 5cde b13e 2700 7f3e
00000110: 52f2 a83e 8e58 fb3e 0cfe 91be 2409 7dbe
00000120: c00a febe 1827 67bf fca8 1ebd 5a5f 1bbd
00000130: 362c e7bb a79c b63e e76a 2b3f 7963 d93e
0.16222431 -0.0534868 -0.6236623 0.66378 0.64164335 -0.5486649 0.3570545 0.2156554
-1.1049181 -0.16385992 -0.13971959 -1.0482651 -0.22006175 -0.6593442 -0.57223 0.11474083
0.0961703 -0.027762072 -0.043881673 -0.473001 -0.67167425 -0.11254218 0.2339889 0.5606638
-0.17767514 -0.64535946 0.123111404 0.37345034 0.06128072 -0.39007896 -0.44529176 -0.061705705
-0.25019303 -1.5738574 0.3406899 0.3608919 0.33745542 -0.18893556 -0.18991086 0.2693399
-0.34696722 0.25815785 -0.80321234 -0.2819839 0.03803768 -0.15323307 -0.13962252 0.81755906
0.6147413 -0.86067826 -0.02647982 -0.21962723 0.03261224 0.5515264 0.04837943 -0.5232259
-0.26689935 -0.24253792 0.3031621 -0.24904697 -0.024369298 0.06578006 -0.27727732 -0.08920181
0.3939193 -0.53237367 0.3473996 0.24902402 0.32997376 0.49091 -0.28514135 -0.24710518
-0.49617577 -0.9029403 -0.038735375 -0.03793273 -0.007054831 0.3566639 0.66959995 0.42458704

network_body._body_endoder.seq_layers.0.bias f4 [20]
00000000: 9edf 8a3d cd47 023e 40a9 e13c 73ca 473d
00000010: 6597 adbd 8e6a 113c a58d d63c 146e ebbc
00000020: e1d9 8cbb 1934 4f3d 065b b63d 02cc 30bd
00000030: 2197 68bc 7cd0 94bd a270 043d 793e 1bbd
00000040: 2633 183d 5302 913d a936 2d3c 2153 123e
0.06780933 0.12722702 0.027546525 0.048777055 -0.08476142 0.008875502 0.026190588 -0.028739013
-0.004298434 0.050586794 0.0890408 -0.043163307 -0.014196188 -0.07266328 0.032333978 -0.037901375
0.037158154 0.070805214 0.010572114 0.14289524

network_body._body_endoder.seq_layers.2.weight f4 [20, 20]
00000000: 36c2 b33e ca46 9bbe 9e45 3ebc 7268 c33d
00000010: 461b cc3d b923 c1be 24ee 8a3d 2cd0 a9bd
00000020: be07 c43d 0b78 8fbe 32bb 713d b7ab 2ebe
00000030: f716 a5bd fc3b adbc 9043 df3e 3421 8bbe
00000040: 76cc 84bd 0da2 3ebe fc74 bebe fe29 2e3c
00000050: 85ff 3fbd 4978 0bbe 89c5 873e 41f9 853d
00000060: b8fd dfbc 5bd0 90be acf5 afbd f820 efbc
00000070: 5c86 a73e 26f0 cd3d 8896 98bd 6180 4f3e
00000080: 4fe9 e93e 22bd a7be fdbb 2fbe b262 cf3e
00000090: 7260 67be c37a 903e 42e0 c6bd ee0d 08bf
000000a0: aa93 d83e 4ba8 f4bd 54f2 88be 5107 edbd
000000b0: ac2e 603d 2927 973c 9466 7e3e ef11 6a3d
000000c0: 71dc c4bd 2f51 b93d d38b de3e c1b6 a2be
000000d0: 97be 803d cf0b 8e3e 0542 e8bd 8ab0 203e
000000e0: 4d59 5d3d 9734 2dbe 9b63 9cbe 8c07 3c3b
000000f0: 3220 e7bc bdb2 cdbd ecef 9bbc 35cd a83d
00000100: d907 8a3d 46de 95bb 2d2a 81be 04ea be3a
00000110: 8390 32be 79a2 173f 7be5 163f 09ae 0cbf
00000120: f516 843e d468 c83d c0fa c0be 0631 1f3e
00000130: d13f 923d 8054 9b3e 549c 203e d66c 33bd
00000140: 1e84 033e 3735 02bc 4ea2 313e 17dc 0b3f
00000150: 1e51 e43d 8328 0dbc ef11 b3be f718 aebc
00000160: 7e20 d63e 6555 6a3e a464 343d 3a74 4c3e
00000170: 6bcc f7bd 083e 19be c6a5 8abe 9d70 fcbd
00000180: 5d20 953d a02b 6c3d 8492 5d3e 184d 2bbe
00000190: 992d 6fbd dfd7 afbd 7c41 d2bd 0bd1 16be
000001a0: 43a2 cfbd 194c 053d d18a 723e 119a 28be
000001b0: 54c9 5d3d 14ed b23d 3659 34be 5d39 0f3e
000001c0: 31b4 97be 7873 d33e e401 56be 9bb7 123e
000001d0: 3b8d 5ebe baa3 80be 70db 8b3e 86c9 873b
000001e0: 2526 4e3e 9109 6cbe 896b babc 4931 953c
000001f0: c72d 88bd 24db 6f3e 5915 4abe de75 c23d
00000200: ee7c abbd 63f8 dd3b 6792 dc3b 3919 cf3b
00000210: 739c 30be e9ab e8bc a7d3 53be 259a a9bd
00000220: 9c06 85be c257 6ebe 12c0 ac3d 42ec c83e
00000230: 6c2a f53d c07b eb3d 67d5 1dbd 58d2 0cbf
00000240: 48b7 a6bd 2af6 2a3b 1acb 883d bc5e c0bb
00000250: 6640 333f ce2f 42be fb64 4d3e ac3c a0bd
00000260: 469e 40be 0d45 f5bd 71fb 15bc 5d4f 1cbe
00000270: 64a5 55bd 0f43 633c 310e babd 2ae2 b73e
00000280: 84ca 1b3e c665 163e d8b3 8abe 1777 eb3c
00000290: 52b6 7a3c 1bc2 21bf a17b 073e ae8b 8c3d
000002a0: e6e8 dd3c fc84 3dbb 34ac e73d 8446 5dbd
000002b0: 1238 173e 6724 56be 5339 60be 80fc 87bd
000002c0: 9fe3 68be 95ae 573e 7599 12bd 7c74 f4be
000002d0: 2cf3 0c3e 34c2 c13e 9093 683d 267b 3bbe
000002e0: 2546 b9be 0b75 31bd b2ab 7e3e 26a7 81bc
000002f0: 26a9 9dbe 1678 42bb 5728 8ebe 7850 be3d
00000300: 9f83 643d ca80 97be a5c2 5e3d 31fb 19be
00000310: 5781 963d 87b2 58be 221f b33e 62d3 e63e
00000320: d86e e23c d0d4 983e d5c8 de3d 8325 0e3e
00000330: bd76 0ebc 7d5d f83d b4ce 843d 2992 f3bd
00000340: 9cf8 bebe f1ed e33d cf37 143f d38b e1bc
00000350: 18e4 b63e 86e4 3ebe 5280 8a3e 0504 18be
00000360: 1a5f f4be c8fa 56be fbfd cd3d d613 c1bd
00000370: 3fb7 5ebe 8ada bd3e 3cdc 1ebc bc97 c33e
00000380: 3481 773e 1a2d 133e f4c9 383e 3907 0bbe
00000390: 38ea 863e bd4a 26be 8f1a 423a 1e0a 41bb
000003a0: 8490 a7be a680 dfba 1235 9c3e 75c3 983e
000003b0: bd4d 913e 0588 ce3e 7c74 2bbf fad7 f93e
000003c0: abaf f9bd aa22 223e 5370 b3be ae88 f93d
000003d0: eb6d e4bd e5be 05bd 9c5d 9d3c 5c89 3ebe
000003e0: 3f59 883e 23e5 58be 3099 213e c279 e53c
000003f0: 059f db3e 446b 81bd b84b 88bd 7e31 593e
0.3510911 -0.30327445 -0.011613278 0.09541406 0.099661395 -0.37722567 0.06783703 -0.08291659
0.09571789 -0.28021273 0.059016414 -0.17057692 -0.08061021 -0.021146767 0.43606234 -0.2717377
-0.0648431 -0.18616505 -0.37198627 0.010630129 -0.04687454 -0.13620104 0.26517895 0.06541682
-0.027342662 -0.28283963 -0.0859178 -0.029190525 0.32719696 0.1005557 -0.074505866 0.20263816
0.45685813 -0.32761484 -0.17161556 0.40504986 -0.22595385 0.2821866 -0.097107425 -0.53146255
0.4230016 -0.11946162 -0.26747382 -0.11573661 0.05473201 0.01845129 0.24843818 0.05714601
-0.09612358 0.09048688 0.43466052 -0.31780055 0.06286352 0.27743384 -0.11340717 0.15692344
0.054040242 -0.16914593 -0.30544743 0.0028691022 -0.028213594 -0.10043857 -0.019035302 0.08242265
0.06739778 -0.004573616 -0.2522749 0.0014565592 -0.1743794 0.5923229 0.5894391 -0.54953057
0.25798765 0.097856194 -0.37691307 0.15546045 0.07141078 0.30337906 0.15684634 -0.043804966
0.12843367 -0.007947258 0.1734707 0.54632705 0.111482844 -0.008615616 -0.3497462 -0.021252139
0.41821665 0.22884138 0.04404129 0.19966212 -0.120995365 -0.1496507 -0.270796 -0.12326167
0.072815634 0.05765879 0.21637923 -0.16728628 -0.058393095 -0.08586096 -0.102663964 -0.14728181
-0.10138371 0.032543276 0.23685767 -0.16465022 0.05414708 0.08736625 -0.17612156 0.13986726
-0.29629663 0.41299033 -0.20899159 0.14327852 -0.21733563 -0.25124913 0.27315855 0.0041438965
0.20131738 -0.23050524 -0.022756355 0.018211978 -0.06649356 0.2342344 -0.19734706 0.09495138
-0.08373438 0.006773995 0.0067313197 0.0063201454 -0.1724718 -0.028402286 -0.20686208 -0.08281354
-0.25981605 -0.23275664 0.08435072 0.3924275 0.11970982 0.11498213 -0.038533594 -0.5500846
-0.08140427 0.0026086667 0.066793635 -0.005870668 0.7002014 -0.18963549 0.20058052 -0.07824072
-0.18810377 -0.11976061 -0.009154187 -0.1526465 -0.052159682 0.0138709685 -0.09084738 0.35914737
0.15213972 0.14687261 -0.27090335 0.02874331 0.015302258 -0.63186806 0.13230754 0.06862579
0.027088594 -0.0028918376 0.11312142 -0.054022327 0.14767483 -0.20912324 -0.21896867 -0.066399574
-0.2274308 0.21062692 -0.03579088 -0.4774512 0.13764638 0.37843478 0.05678135 -0.18308696
-0.3618633 -0.04332451 0.24870184 -0.015826773 -0.30793113 -0.0029673628 -0.27765152 0.09292692
0.055789586 -0.29590446 0.054384846 -0.15037228 0.07348888 -0.21161853 0.3498469 0.45083147
0.027640745 0.29849863 0.108781494 0.13881497 -0.008695302 0.121272065 0.06484738 -0.11893112
-0.3729905 0.11129368 0.5789766 -0.027532494 0.35720897 -0.18641862 0.27051026 -0.14845283
-0.47728807 -0.20994103 0.100582086 -0.094276115 -0.2174959 0.37080795 -0.009696063 0.38201702
0.24170381 0.14372674 0.18045789 -0.13576974 0.2635057 -0.16239448 0.000740447 -0.0029455493
-0.32727444 -0.001705189 0.3050924 0.29836622 0.28379622 0.4033815 -0.66974616 0.4879759
-0.12191709 0.15833536 -0.35046634 0.12184273 -0.11153778 -0.032652754 0.019209675 -0.18607086
0.2663059 -0.21181159 0.15781093 0.02801216 0.4289476 -0.063192874 -0.06655067 0.21210286

network_body._body_endoder.seq_layers.2.bias f4 [20]
00000000: 914d 42ba ebee 4f3c 2d05 803d 0380 503d
00000010: 21ae 1cbc aadd 0bbb 2ff9 6c3d 3435 913d
00000020: 9bb5 163d 9c22 c83d 6ee7 ff3c 3cbe 4c3d
00000030: 668c c63b d9b5 9b3d 2bef e33d 2a5c 173d
00000040: 60fe 8a3d 64d0 9c3c 074c 713c 570a 9abc
-0.0007412071 0.01269124 0.06250987 0.05090333 -0.009563 -0.002134184 0.057854827 0.07090226
0.036794286 0.09772226 0.031238284 0.04998611 0.0060592173 0.07603044 0.11129602 0.03695313
0.067867994 0.019142337 0.014727599 -0.018803759

action_model._discrete_distribution.branches.0.weight f4 [3, 20]
00000000: 8c8f 4ebd 0546 5e3d 58a5 3f3d ca38 803d
00000010: c9c0 553d 1910 553b 252d b33d a556 8dbd
00000020: b3c2 f83c dc9c a0bd c96b 0a3d e45b 14bc
00000030: 1685 4d3a c7e9 e1bd 8e11 cabd c89d 013d
00000040: 3946 cdbd 4de6 163d dfcf e73c 4ca7 38bc
00000050: ef75 b93c edf5 f5bc 5510 03bd 3d16 8abc
00000060: 8c57 e6bc 8274 3e3d 9e78 50bd dabb 74bd
00000070: 2729 dabb f706 f4bc ef4a 64bc a193 c4bc
00000080: e9e5 89bd 2e1b 283d 2b37 a1bc 8709 a23c
00000090: 35af 003c e628 adbc bfff cabc b9e6 9cbb
000000a0: d61d 4cba 8143 0cbd 210c 6cbd a9f3 53bd
000000b0: 3308 8bbc f9d5 76bd 0f56 96bd b0e9 a83d
000000c0: 62f6 1dbd 9bd2 0f3e 8be8 89bd 484f 5d3d
000000d0: 2881 1bbc c2c1 003e dd4a e23d d358 bcbd
000000e0: 966d c03d b49b cabc 93ed 80bb 35d1 263c
-0.050429866 0.054265995 0.046788543 0.06260832 0.052185807 0.0032510816 0.08748845 -0.06901292
0.030366277 -0.078424186 0.0337942 -0.009055112 0.0007839961 -0.110309176 -0.098666295 0.031644613
-0.100231595 0.036840726 0.028297363 -0.011270355 0.022639243 -0.030024493 -0.031997997 -0.016856307
-0.028117917 0.04649783 -0.05089628 -0.05974946 -0.006657738 -0.029788477 -0.013933881 -0.023996176
-0.06733305 0.041041546 -0.019679626 0.019779934 0.007854273 -0.021137666 -0.024780152 -0.0047882465
-0.00077864283 -0.034244064 -0.057628755 -0.051746044 -0.016971683 -0.060262654 -0.07340633 0.08247697
-0.038565047 0.14045183 -0.06733807 0.054030687 -0.0094912425 0.12573913 0.11049435 -0.091966294
0.09395902 -0.024732448 -0.003934571 0.010181715

action_model._discrete_distribution.branches.0.bias f4 [3]
00000000: 2bfb ebbb 9122 86bc 9838 b03c
-0.0072015724 -0.016373904 0.021511361
